Other Experiments/data_reuploading/NQE/nq:4_nd:5/NQE_it2_7.pt (torch, 10339 bytes, 6 tensors)

layer1.0.weight f4 [1, 1, 3, 3]
-0.031833462 0.033798072 -0.07699323 -0.06970413 -0.25717935 0.24710868 -0.13374345 -0.024033505
-0.26740533
00000000: ce63 02bd d96f 0a3d a0ae 9dbd 0ac1 8ebd
00000010: 03ad 83be 0f0a 7d3e 0bf4 08be eae1 c4bc
00000020: 5ae9 88be

layer2.0.weight f4 [1, 1, 3, 3]
0.071893446 0.00090808095 0.048737332 0.10612111 0.20368233 -0.14791429 -0.100815915 -0.13794142
-0.3081649
00000000: df3c 933d 480c 6e3a cca0 473d 0656 d93d
00000010: 1a92 503e d876 17be 9378 cebd 8440 0dbe
00000020: cac7 9dbe

fc.0.weight f4 [32, 49]
0.007758192 0.03291406 0.10480321 -0.022113005 -0.031393413 0.014147093 -0.047049765 0.0758446
0.07093096 0.060283057 0.033735525 0.0781569 0.056936536 0.10223808 0.13192019 0.087506
-0.03440607 0.0099186655 0.02701601 -0.023695232 0.06290185 0.04278851 0.07522654 -0.050967153
-0.1347378 0.000770146 -0.03577006 -0.12115187 0.007320013 0.116202995 -0.058781072 -0.1270299
-0.082705036 -0.07628601 0.09811561 -0.11052253 -0.11032896 -0.08073396 -0.0351791 0.04554563
0.025745802 -0.0022669209 0.06495949 -0.10045723 -0.008562993 0.034140427 0.12938668 -0.044818763
0.020933291 0.024352977 0.05016506 -0.08732658 0.04930347 -0.14012942 -0.04822642 0.09670726
0.04275998 -0.0048566717 -0.09380624 0.096856296 -0.07912569 0.105450206 -0.03973124 0.070601776
-0.007096831 0.08317178 -0.12813978 -0.1067243 0.06378808 0.12882768 -0.11054421 -0.13232683
-0.025157243 0.11660134 0.11562417 -0.041153774 -0.13093805 0.07431344 0.13860124 0.09450807
0.00716315 -0.05667688 -0.002015642 0.014818838 0.11521147 0.099599116 0.0726819 0.06459025
0.13638535 -0.014940058 0.11194497 -0.025980357 -0.025965258 0.04755797 0.09696516 -0.032769166
-0.07535638 -0.024456447 0.11914702 0.020278625 -0.025388889 -0.047831956 0.0091520455 -0.0005235199
0.009408269 -0.10815495 -0.05438662 -0.05283558 -0.09357787 -0.109627046 -0.11007854 0.060605835
0.12902662 -0.087944336 0.10093524 -0.018168554 0.12946564 -0.06642409 0.13628043 0.058906592
0.07346864 -0.09190285 0.087322794 0.040460378 -0.05305294 0.10573792 0.06760471 0.114132226
-0.002477685 0.100092776 -0.05465083 0.09023418 -0.0096504195 -0.055331897 0.0023609125 0.06896466
-0.098651364 0.031927094 0.1369648 0.09447865 -0.12509198 -0.08078829 0.041665185 0.091435075
-0.11766052 -0.063386865 -0.05041197 -0.14089878 -0.113528475 -0.13056314 -0.13179962 0.024553642
-0.13008624 -0.14028291 -0.013281329 -0.071377024 -0.089023106 0.028539388 0.09080069 -0.13522142
-0.042089216 -0.050107174 -0.045229062 -0.14330815 0.03481531 -0.07748314 0.12222888 0.11974732
-0.114161566 0.04696052 -0.048986375 0.08045697 -0.09036651 -0.0017837798 0.007890564 0.096739806
0.083699316 -0.14195044 0.10866473 -0.05131383 -0.14029524 0.03947135 0.054363936 0.02856194
0.021327961 0.00378036 0.016686764 -0.10588432 0.079082645 -0.0098303445 -0.05582856 0.049115233
0.13394539 -0.11252261 0.026737362 0.06151984 0.048075013 0.14138709 0.052155003 0.0026015765
0.12742008 -0.12101462 0.08146617 -0.13532983 0.0034925428 -0.009252716 0.13723117 0.08419841
0.005957876 0.111771844 -0.090556845 -0.054830942 -0.033283167 -0.053521678 0.069243416 0.06498718
-0.12799707 -0.020411372 -0.107171446 0.03855439 0.09933194 0.033078425 -0.088879235 -0.05528495
0.06678043 -0.08165093 0.012936771 0.086959735 -0.12590021 0.00917433 0.09513866 0.08030471
0.0503225 0.13071257 -0.07120314 -0.023466742 -0.07847139 0.13185354 -0.013865088 0.006323039
0.13737047 -0.1348445 -0.13216633 -0.13592954 0.050356448 0.077761024 0.055019468 -0.048715934
-0.08749624 0.060087435 0.09525979 -0.06264489 -0.14260502 0.0020184347 -0.0047353455 -0.08823269
00000000: 6e38 fe3b e5d0 063d 11a3 d63d 5526 b5bc
00000010: 6196 00bd 35c9 673c 41b7 40bd 6a54 9b3d
00000020: 4044 913d 5eeb 763d 432e 0a3d ba10 a03d
00000030: 4936 693d 3362 d13d 1616 073e 5936 b33d
00000040: 61ed 0cbd e681 223c ae50 dd3c 811c c2bc
00000050: afd2 803d 0143 2f3d 5f10 9a3d efc2 50bd
00000060: b5f8 09be a0e3 493a a083 12bd 791e f8bd
00000070: b8dc ef3b d6fb ed3d 6cc4 70bd 2014 02be
00000080: 4261 a9bd d73b 9cbd d6f0 c83d a359 e2bd
00000090: 26f4 e1bd d957 a5bd f617 10bd 0e8e 3a3d
000000a0: dce8 d23c 9f90 14bb 7b09 853d 85bc cdbd
000000b0: cc4b 0cbc d5d6 0b3d f17d 043e e193 37bd
000000c0: 4b7c ab3c e57f c73c e179 4d3d 47d8 b2bd
000000d0: 6ff2 493d 167e 0fbe 1189 45bd 750e c63d
000000e0: 1725 2f3d b724 9fbb 7c1d c0bd 985c c63d
000000f0: a60c a2bd 47f6 d73d 3abd 22bd aa97 903d
00000100: 898c e8bb f755 aa3d 1337 03be 4592 dabd
00000110: 53a3 823d 67eb 033e 0165 e2bd af80 07be
00000120: 9016 cebc afcc ee3d 5dcc ec3d dc90 28bd
00000130: a014 06be a531 983d 7ced 0d3e 728d c13d
00000140: dbb8 ea3b 0426 68bd dc18 04bb b6ca 723c
00000150: fef3 eb3d 9ffa cb3d 3fda 943d e547 843d
00000160: 9aa8 0b3e 25c7 74bc 6843 e53d c2d4 d4bc
00000170: 18b5 d4bc 25cc 423d ab95 c63d f638 06bd
00000180: 7254 9abd e358 c8bc 5a03 f43d 5c1f a63c
00000190: 5cfc cfbc 71eb 43bd 76f2 153c d33c 09ba
000001a0: 2425 1a3c 5880 ddbd 81c4 5ebd 1f6a 58bd
000001b0: c1a5 bfbd 2584 e0bd dc70 e1bd d33d 783d
000001c0: 8e1f 043e 291c b4bd 23b7 ce3d 38d6 94bc
000001d0: a492 043e 5a09 88bd 198d 0b3e 0a48 713d
000001e0: ba76 963d 9037 bcbd 4bd6 b23d c8b9 253d
000001f0: 0a4e 59bd 1f8d d83d 5774 8a3d 28be e93d
00000200: a860 22bb 71fd cc3d 8cd9 5fbd b3cc b83d
00000210: cb1c 1ebc b3a3 62bd 8ab9 1a3b 583d 8d3d
00000220: ba09 cabd fcc5 023d 8040 0c3e 067e c13d
00000230: 1d18 00be 5574 a5bd 1da9 2a3d 5042 bb3d
00000240: 00f8 f0bd f9d0 81bd c87c 4ebd c547 10be
00000250: 9e81 e8bd 58b2 05be 7bf6 06be b824 c93c
00000260: 5435 05be 53a6 0fbe ee99 59bc 1e2e 92bd
00000270: bf51 b6bd 6fcb e93c b6f5 b93d 7c77 0abe
00000280: be65 2cbd 2e3d 4dbd 1c42 39bd 5fbf 12be
00000290: 809a 0e3d 7baf 9ebd 2353 fa3d 153e f53d
000002a0: 8acd e9bd ad59 403d f0a5 48bd a0c6 a43d
000002b0: 1412 b9bd b8cd e9ba 6d47 013c 851f c63d
000002c0: 8c6a ab3d 755b 11be 9d8b de3d 732e 52bd
000002d0: 8ea9 0fbe b6ac 213d b8ac 5e3d bbfa e93c
000002e0: fab7 ae3c ebbf 773b aeb2 883c e1d9 d8bd
000002f0: 15f6 a13d 740f 21bc 7dac 64bd 0e2d 493d
00000300: fb28 093e 4172 e6bd 5008 db3c 3afc 7b3d
00000310: 4eea 443d c7c7 103e 7ca0 553d 367f 2a3b
00000320: 697a 023e 83d6 f7bd bcd7 a63d e793 0abe
00000330: 25e3 643b b498 17bc 5486 0c3e 3770 ac3d
00000340: 493a c33b a3e8 e43d de75 b9bd 6996 60bd
00000350: ee53 08bd 8c39 5bbd 7ecf 8d3d 0018 853d
00000360: aa11 03be c035 a7bc b47c dbbd 35eb 1d3d
00000370: 8b6e cb3d 3e7d 073d 5106 b6bd 7972 62bd
00000380: 2ec4 883d 9a38 a7bd c0f4 533c f217 b23d
00000390: fceb 00be ee4f 163c 0fd8 c23d cc76 a43d
000003a0: f71e 4e3d 84d9 053e f4d2 91bd 533d c0bc
000003b0: 9cb5 a0bd 9d04 073e 652a 63bc 7f31 cf3b
000003c0: d8aa 0c3e ad14 0abe 9c56 07be 1d31 0bbe
000003d0: 9042 4e3d 2c41 9f3d 185c 613d 5c8a 47bd
000003e0: 3b31 b3bd 3e1e 763d 9117 c33d f74b 80bd
000003f0: 0d07 12be b747 043b f52a 9bbb 57b3 b4bd

fc.0.bias f4 [32]
0.028097743 0.042105734 -0.009984761 -0.055276107 -0.13775732 0.019175362 -0.013665878 -0.016182702
0.033115383 0.12984341 -0.059650064 0.13253383 -0.071733855 0.095616385 -0.04187463 0.050862014
0.13702126 -0.042826854 -0.12978537 -0.018755069 0.10740995 -0.011466911 0.050170146 -0.0065239053
-0.019073267 0.09812899 0.0957981 0.13332447 -0.0036063213 0.1303604 0.08775008 0.017741952
00000000: 3d2d e63c 1077 2c3d 1f97 23bc 3369 62bd
00000010: 4110 0dbe a615 9d3c d9e6 5fbc 9691 84bc
00000020: ffa3 073d acf5 043e a053 74bd f3b6 073e
00000030: 33e9 92bd 86d2 c33d bb84 2bbd b054 503d
00000040: 4d4f 0c3e 366b 2fbd 75e6 04be 3ba4 99bc
00000050: bff9 db3d b6df 3bbc 367f 4d3d 7cc6 d5bb
00000060: 8a3f 9cbc daf7 c83d cb31 c43d 3686 083e
00000070: 0858 6cbb 327d 053e 50b6 b33d 9257 913c

fc.1.weight f4 [8, 32]
-0.029284555 0.119668044 0.15831238 -0.11119252 0.03722886 0.12222853 -0.019806204 -0.08882863
0.05037376 0.04031014 -0.16231811 -0.1475751 0.05556868 0.14709668 -0.1565253 -0.05914251
0.014366078 0.12852937 -0.16018066 -0.08686343 -0.15625192 -0.036383137 0.077318735 0.15927573
-0.11296765 0.061425205 0.031024648 -0.17457278 0.06603147 0.005093726 0.10564276 -0.013598038
-0.1299068 -0.12810238 -0.05602148 0.04847065 0.013877939 -0.07846855 -0.05704536 -0.09283281
-0.1545343 0.1517091 -0.13026822 0.12482629 -0.16361415 -0.12821712 0.10608727 -0.095684424
-0.06554562 -0.026439397 0.1491137 -0.17142743 0.1466614 0.022369973 0.01834544 -0.12874983
-0.028018974 0.096469365 -0.12568691 0.12545265 -0.083898716 -0.07789017 -0.038549088 0.06051647
0.14222579 -0.031210361 -0.11180449 0.16926378 0.046894435 0.036051035 -0.04403365 -0.13653219
-0.1596644 -0.02450279 -0.03644304 0.03053136 -0.120892435 0.10895475 -0.16103642 -0.15416124
-0.12831436 0.086279705 -0.112221956 -0.025157282 0.017879102 0.09376095 -0.045138944 -0.11431919
-0.11535675 -0.13450448 -0.1404327 -0.17439625 -0.1562545 0.12118068 0.057061046 -0.13813587
-0.08812573 0.15387419 0.14323287 -0.015784528 -0.10905385 -0.08350272 -0.13558581 0.12030708
-0.011392562 -0.073049694 0.111568056 -0.05461562 -0.16279738 -0.12664284 0.0028514937 0.021833828
0.08412025 0.1122752 0.08802229 -0.1551601 0.05009645 -0.054080255 0.06058369 -0.11777152
-0.014809746 0.11205916 0.09150346 0.019749185 -0.11024481 -0.0416129 0.030828644 -0.14879955
0.16449688 -0.0037717368 -0.16650684 0.13556914 -0.10643855 -0.0021482816 0.11245488 0.024012083
0.16831261 -0.083793245 0.12113782 -0.08015851 -0.00031113054 -0.06240617 0.14365923 -0.10411529
-0.13563289 -0.037623324 0.066065535 0.16970704 -0.17440283 0.0085622035 0.044759437 -0.108100615
0.04079511 0.10413218 -0.031785667 0.010288824 0.049051564 0.12366582 -0.08965595 -0.022598939
-0.116216674 0.0798128 -0.009422169 -0.111601 0.12310637 -0.056100253 -0.08653264 0.067641005
-0.003064697 -0.12384947 0.118113585 0.1277525 -0.08227494 0.05232716 0.052130125 -0.07275378
-0.060453158 -0.005255074 -0.08869327 0.060822975 -0.11018536 0.019938208 0.12254342 -0.10728401
-0.05064945 -0.052394237 0.040922333 0.17023957 0.07036837 -0.1324596 0.091022305 -0.15450254
0.07305183 0.114755064 0.06152937 0.041281186 0.08383753 -0.009347121 -0.120828785 0.07833683
-0.081172355 -0.027297314 -0.10554372 -0.038296215 -0.04668969 0.01058939 0.037957985 -0.04894561
-0.05538091 0.084359124 -0.14026049 -0.1763397 0.07289495 -0.11180241 -0.04217575 0.06871263
0.16778512 -0.052780446 -0.0020596716 -0.062696256 0.05299973 0.15559864 0.15758218 0.038399883
-0.13934182 0.15801902 0.02165477 -0.023836697 -0.1343708 0.1512179 -0.12524833 -0.13252294
-0.10551798 0.07810233 0.04441157 0.07626891 0.08702798 0.11513663 0.064191625 0.13329837
-0.12117021 0.054564282 -0.042013157 -0.031101758 0.13068514 0.009452264 -0.045285873 -0.025865564
0.12207612 -0.017522475 0.0006423023 0.118131794 0.074501365 -0.147448 -0.009863196 0.039549112
00000000: 2ae6 efbc 8514 f53d a41c 223e e7b8 e3bd
00000010: 4a7d 183d f452 fa3d 9f40 a2bc c9eb b5bd
00000020: b754 4e3d 3f1c 253d b836 26be ed1d 17be
00000030: fc9b 633d 83a0 163e 2b48 20be 6b3f 72bd
00000040: b35f 6b3c 349d 033e 6606 24be 74e5 b1bd
00000050: 8100 20be 7c06 15bd 4959 9e3d 2d19 233e
00000060: 955b e7bd ff98 7b3d 6727 fe3c 35c3 32be
00000070: 823b 873d 45e9 a63b 3b5b d83d 4eca 5ebc
00000080: 4a06 05be 452d 03be c876 65bd 2989 463d
00000090: 4c60 633c 1fb4 a0bd 65a8 69bd 211f bebd
000000a0: 3d3e 1ebe a159 1b3e 0865 05be eda4 ff3d
000000b0: 788a 27be 594b 03be 4844 d93d 32f6 c3bd
000000c0: c83c 86bd 6f97 d8bc 43b1 183e ac8a 2fbe
000000d0: 682e 163e 3c41 b73c 2d49 963c ffd6 03be
000000e0: 0c88 e5bc bb91 c53d 12b4 00be a976 003e
000000f0: 17d3 abbd e284 9fbd a6e5 1dbd 1ee0 773d
00000100: a3a3 113e dfac ffbc c1f9 e4bd 7c53 2d3e
00000110: 6114 403d 40aa 133d a15c 34bd 18cf 0bbe
00000120: 117f 23be 13ba c8bc 4c45 15bd e71c fa3c
00000130: 7496 f7bd ab23 df3d bbe6 24be 72dc 1dbe
00000140: d764 03be 6ab3 b03d a0d4 e5bd a516 cebc
00000150: 3277 923c be05 c03d 9de3 38bd 2e20 eabd
00000160: 2940 ecbd 8bbb 09be 97cd 0fbe ee94 32be
00000170: 2e01 20be 942d f83d d8b8 693d 7d73 0dbe
00000180: 437b b4bd 3291 1d3e a3ab 123e 8e4e 81bc
00000190: a057 dfbd 7903 abbd 02d7 0abe 8f63 f63d
000001a0: dea7 3abc 149b 95bd cb7d e43d a1b4 5fbd
000001b0: 5bb4 26be a9ae 01be 20e0 3a3b dbdc b23c
000001c0: 3d47 ac3d 8af0 e53d 0845 b43d 4ae2 1ebe
000001d0: ef31 4d3d 4283 5dbd 9a26 783d 3232 f1bd
000001e0: 94a4 72bc 467f e53d 2b66 bb3d 0bc9 a13c
000001f0: 08c8 e1bd 4a72 2abd 5a8c fc3c e95e 18be
00000200: df71 283e 3e2f 77bb c580 2abe a3d2 0a3e
00000210: 74fc d9bd 2fca 0cbb be4e e63d fdb4 c43c
00000220: 245a 2c3e cb9b abbd 1b17 f83d 252a a4bd
00000230: 3c1f a3b9 9d9d 7fbd 681b 133e 663a d5bd
00000240: 59e3 0abe ea1a 1abd 5e4d 873d afc7 2d3e
00000250: a896 32be 7c48 0c3c ac55 373d db63 ddbd
00000260: c618 273d 4143 d53d b031 02bd 7592 283c
00000270: 4bea 483d 8144 fd3d 8a9d b7bd 6921 b9bc
00000280: 0203 eebd e574 a33d 715f 1abc 118f e4bd
00000290: 311f fc3d 61c9 65bd 0638 b1bd 5e87 8a3d
000002a0: 15d9 48bb caa4 fdbd 89e5 f13d 8dd1 023e
000002b0: c47f a8bd 0155 563d 6686 553d efff 94bd
000002c0: bb9d 77bd c132 acbb d1a4 b5bd 8321 793d
000002d0: dda8 e1bd 7455 a33c 0bf8 fa3d b8b7 dbbd
000002e0: cc75 4fbd 579b 56bd 2d9e 273d 4853 2e3e
000002f0: 4b1d 903d 7da3 07be e769 ba3d ea35 1ebe
00000300: 339c 953d b404 eb3d 3806 7c3d 7616 293d
00000310: 03b3 ab3d ab24 19bc 1575 f7bd 0f6f a03d
00000320: b13d a6bd 9e9e dfbc 4e27 d8bd 7edc 1cbd
00000330: b03d 3fbd 1f7f 2d3c d579 1b3d 317b 48bd
00000340: 18d7 62bd 7ac4 ac3d 72a0 0fbe 6592 34be
00000350: f349 953d a9f8 e4bd 7bc0 2cbd 35b9 8c3d
00000360: ddcf 2b3e 4f30 58bd 8efb 06bb e566 80bd
00000370: 3f16 593d 4055 1f3e 395d 213e 3249 1d3d
00000380: 9faf 0ebe bdcf 213e 5865 b13c 2d45 c3bc
00000390: 8098 09be ddd8 1a3e 1941 00be 18b4 07be
000003a0: d019 d8bd 1df4 9f3d e8e8 353d e032 9c3d
000003b0: ba3b b23d c1cc eb3d e676 833d 5e7f 083e
000003c0: 1628 f8bd cc7e 5f3d fd15 2cbd 1dc9 febc
000003d0: 53d2 053e abdd 1a3c ae7d 39bd 05e4 d3bc
000003e0: 0b03 fa3d 4b8b 8fbc 2d60 283a 15ef f13d
000003f0: 2c94 983d 9cfc 16be 3e99 21bc 40fe 213d

fc.1.bias f4 [8]
0.097282134 0.16349551 0.046110053 -0.15964618 0.029999034 -0.02351193 0.12519366 0.17591223
00000000: db3b c73d 5e6b 273e e5dd 3c3d 4a7a 23be
00000010: 89c0 f53c 179c c0bc c432 003e 5622 343e
