Other Experiments/data_reuploading/NQE/nq:4_nd:5/PCA-NQE_it2_25.pt (torch, 3663 bytes, 6 tensors)

linear_relu_stack2.0.weight f4 [12, 4]
-0.38195398 -0.43282586 0.44501784 -0.37112573 -0.41907 0.11441245 -0.149948 -0.35468283
0.32731393 -0.26673496 -0.12019214 0.21178153 0.15055789 0.37387812 0.3672659 0.15530805
-0.3522321 -0.3526876 -0.41755825 -0.11742051 0.13610992 0.09069903 -0.36950257 -0.16936538
0.10661025 -0.3650281 0.47792912 0.49061483 -0.31632486 0.24962105 -0.31774023 0.33196393
0.33795118 0.45030332 -0.07409009 0.41337478 0.097590506 -0.15307376 0.02005529 -0.4570807
-0.351971 -0.11534429 0.24323227 -0.015431085 0.28262386 0.32293198 0.48301572 -0.13118221
00000000: 798f c3be 5a9b ddbe 61d9 e33e 3104 bebe
00000010: 5890 d6be 1351 ea3d f88b 19be fd98 b5be
00000020: b195 a73e 7c91 88be 4c27 f6bd 42dd 583e
00000030: d92b 1a3e f46c bf3e 470a bc3e 1309 1f3e
00000040: c457 b4be 7893 b4be 32ca d5be 2a7a f0bd
00000050: 6660 0b3e 6ac0 b93d 712f bdbe 1e6e 2dbe
00000060: 7a56 da3d f7e4 babe 20b3 f43e de31 fb3e
00000070: 55f5 a1be a99c 7f3e d9ae a2be 2df7 a93e
00000080: f007 ad3e 288e e63e 8cbc 97bd dca5 d33e
00000090: 88dd c73d 5ebf 1cbe fe4a a43c 7b06 eabe
000000a0: 8b35 b4be a139 ecbd e111 793e a9d2 7cbc
000000b0: 13b4 903e 5757 a53e d64d f73e a154 06be

linear_relu_stack2.0.bias f4 [12]
0.4074591 -0.044155534 -0.20001046 -0.47940812 0.45070326 -0.27789304 -0.14453594 0.43589005
-0.24280486 -0.41547307 0.43252006 0.47114176
00000000: 7b9e d03e 6fdc 34bd 8bcf 4cbe fb74 f5be
00000010: 94c2 e63e ff47 8ebe 3b01 14be fb2c df3e
00000020: d6a1 78be e3b8 d4be 4573 dd3e 7e39 f13e

linear_relu_stack2.2.weight f4 [12, 12]
0.21418634 -0.18893224 -0.011351603 -0.1197469 0.15601182 0.19889739 -0.24315742 0.28776067
-0.0048029292 0.28425035 0.26816016 0.0474763 0.1430923 0.101542406 0.081496164 0.13994882
0.26695418 -0.016007958 0.004444971 0.109059796 0.10824731 -0.14521198 0.20689993 0.15910102
-0.037810214 0.16116948 0.1709259 -0.21900803 -0.11118903 0.25934058 0.131059 -0.1867602
-0.2561274 -0.13471751 -0.022864567 0.21724698 0.06209744 -0.25861916 0.099927776 0.16973239
0.27843663 -0.09713021 -0.09920462 0.08040768 -0.02299267 0.2827625 -0.20656896 0.22255972
0.10307887 0.19108146 0.17349774 0.05281254 0.26679295 -0.13799557 0.3061492 0.11690663
0.3858058 -0.24451393 -0.09861827 -0.20627077 -0.14408705 0.05726527 0.07765658 -0.26948673
-0.06951002 0.24218278 -0.21506067 -0.21986844 -0.09295182 0.1125791 -0.25350866 -0.0057529183
0.07610185 -0.25987825 0.28715006 -0.058974028 -0.19996464 -0.14636663 0.041710164 0.06618886
0.063412465 -0.2040736 -0.045130424 -0.061657112 0.051213916 0.25941372 0.077218674 -0.22562195
0.07249126 0.24515279 -0.18734616 -0.12641619 0.16207385 -0.2309667 0.1264184 -0.121744
-0.13543811 -0.024993503 0.18891403 -0.28677964 0.03151579 -0.2708848 -0.16956314 -0.1746255
-0.15054345 -0.035587713 0.26835757 0.04192878 -0.12357695 -0.19448079 -0.13094302 0.09975393
-0.22586101 0.014075421 0.24986249 -0.2638759 -0.029674374 -0.19864321 0.16563278 0.061281048
-0.006042299 -0.0797664 0.211202 -0.28758568 0.23464918 -0.12005816 -0.02161146 -0.17882054
0.047133844 0.020708458 0.25358486 0.011272786 -0.07288707 -0.23521557 0.26368248 -0.028914187
0.017758548 -0.059158195 -0.037747156 -0.28380686 0.30993274 -0.12650588 -0.11449249 0.21022266
00000000: aa53 5b3e 7477 41be 13fc 39bc dd3d f5bd
00000010: 90c1 1f3e c2ab 4b3e 42fe 78be 5e55 933e
00000020: e461 9dbb 4389 913e 4a4c 893e 8276 423d
00000030: ca86 123e 77f5 cf3d 76e7 a63d be4e 0f3e
00000040: 38ae 883e 1f23 83bc 1fa7 913b be5a df3d
00000050: c4b0 dd3d 73b2 14be 93dd 533e 61eb 223e
00000060: e2de 1abd 9d09 253e 3307 2f3e a443 60be
00000070: 13b7 e3bd 4ac8 843e 5534 063e 113e 3fbe
00000080: 2123 83be 63f3 09be 794e bbbc fe75 5e3e
00000090: e359 7e3d bb69 84be efa6 cc3d 54ce 2d3e
000000a0: 3f8f 8e3e 34ec c6bd cb2b cbbd c8ac a43d
000000b0: 205b bcbc 3fc6 903e d086 53be b2e6 633e
000000c0: 041b d33d dcaa 433e 64a9 313e f651 583d
000000d0: 1699 883e b64e 0dbe 97bf 9c3e be6c ef3d
000000e0: 5688 c53e dc61 7abe 60f8 c9bd a538 53be
000000f0: 8e8b 13be fd8e 6a3d 6a0a 9f3d 2afa 89be
00000100: 455b 8ebd c3fe 773e dd38 5cbe 3125 61be
00000110: 865d bebd df8f e63d e3cb 81be fa82 bcbb
00000120: 49db 9b3d c30e 85be 5505 933e c08e 71bd
00000130: 88c3 4cbe 22e1 15be 47d8 2a3d 068e 873d
00000140: 65de 813d abf8 50be aeda 38bd 2b8c 7cbd
00000150: afc5 513d e0d1 843e d324 9e3d 7109 67be
00000160: 4c76 943d 5509 7b3e acd7 3fbe 3f73 01be
00000170: b0f6 253e 8982 6cbe d373 013e eb54 f9bd
00000180: 4ab0 0abe 2dbf ccbc ae72 413e c8d4 92be
00000190: b316 013d 6ab1 8abe f6a1 2dbe 07d1 32be
000001a0: 1028 1abe 6cc4 11bd 2a66 893e 83bd 2b3d
000001b0: e915 fdbd f925 47be ed15 06be ca4b cc3d
000001c0: 1c48 67be 989c 663c f4db 7f3e be1a 87be
000001d0: ac17 f3bc 2069 4bbe a49b 293e d601 7b3d
000001e0: 7afe c5bb 915c a3bd 5645 583e 6e3e 93be
000001f0: e047 703e 0de1 f5bd 840a b1bc bb1c 37be
00000200: 6b0f 413d c9a4 a93c e0d5 813e 7eb1 383c
00000210: d145 95bd 5adc 70be 6401 873e 72dd ecbc
00000220: 607a 913c dd4f 72bd c39c 1abd 224f 91be
00000230: 81af 9e3e c28a 01be 0a7b eabd 9c44 573e

linear_relu_stack2.2.bias f4 [12]
0.01359631 0.2098855 -0.0444699 -0.18114589 0.07086893 0.115632474 -0.090464726 -0.08702816
-0.1546139 0.047192432 -0.17964084 0.2718395
00000000: 0fc3 5e3c 39ec 563e 1226 36bd 4f7e 39be
00000010: bb23 913d b8d0 ec3d 9245 b9bd d23b b2bd
00000020: 1b53 1ebe da4c 413d c5f3 37be 8c2e 8b3e

linear_relu_stack2.4.weight f4 [8, 12]
0.16986747 -0.035656273 -0.08121845 0.26856086 -0.015679939 0.025363613 0.15239419 -0.26722315
0.0653873 0.024087809 0.26953837 0.15907983 -0.1515958 -0.12093822 -0.0187193 0.053034678
0.19264977 0.2771738 0.15273948 -0.050332285 -0.17027591 -0.16538276 0.074158 0.33280662
-0.14248471 0.005267651 -0.11435189 -0.047605697 0.13206813 0.15533006 0.19356652 -0.077022985
-0.14608511 0.048556488 -0.16573575 0.23915778 -0.18926018 0.024326647 0.04122984 0.2183236
-0.20308696 0.0033611972 -0.27965596 -0.106567346 -0.048931636 0.22424425 0.104049854 -0.09517792
-0.21134768 -0.22253719 -0.060732607 0.13285127 0.25698212 0.27123162 0.1672868 -0.020594288
-0.039198883 -0.16075468 0.22605261 0.17791273 -0.1167383 0.076537296 -0.11361448 -0.10663218
0.2545074 0.20494968 0.15442556 -0.28149492 0.011385564 0.2603149 -0.21402416 0.08068192
0.16291586 -0.011420254 0.12224587 -0.06317059 0.05166052 0.2836304 0.01747994 0.01648799
0.24397185 0.1427914 0.17304222 0.13797057 0.047192805 0.05221115 -0.17107083 -0.17576084
-0.2008861 -0.25302145 -0.17938654 0.2799243 0.28579238 0.07330982 0.16279379 -0.28957903
00000000: bdf1 2d3e 500c 12bd dc55 a6bd cf80 893e
00000010: 3773 80bc 5ac7 cf3c 390d 1c3e 79d1 88be
00000020: c7e9 853d cc53 c53c ef00 8a3e d3e5 223e
00000030: ee3b 1bbe 75ae f7bd 3859 99bc e43a 593d
00000040: fb45 453e b9e9 8d3e bd67 1c3e 3a29 4ebd
00000050: cf5c 2ebe 195a 29be 26e0 973d a165 aa3e
00000060: 83e7 11be 429c ac3b 5331 eabd 31fe 42bd
00000070: de3c 073e d80e 1f3e 4d36 463e 3abe 9dbd
00000080: 5697 15be 2be3 463d a2b6 29be c7e5 743e
00000090: 6ccd 41be ad48 c73c 9fe0 283d 3990 5f3e
000000a0: 07f6 4fbe 8847 5c3b 112f 8fbe fb3f dabd
000000b0: 8a6c 48bd 49a0 653e 1718 d53d a4ec c2bd
000000c0: 876b 58be cae0 63be c1c2 78bd 2a0a 083e
000000d0: 2993 833e dfde 8a3e 3b4d 2b3e 5ab5 a8bc
000000e0: 028f 20bd e09c 24be 567a 673e c12e 363e
000000f0: 7d14 efbd 96bf 9c3d b5ae e8bd f961 dabd
00000100: cb4e 823e 54de 513e bc21 1e3e 1a20 90be
00000110: 848a 3a3c ff47 853e 2629 5bbe 903c a53d
00000120: 6ad3 263e 041c 3bbc 0b5c fa3d 955f 81bd
00000130: fb99 533d 0138 913e 1732 8f3c d211 873c
00000140: c2d3 793e e937 123e fb31 313e 2848 0d3e
00000150: 3e4d 413d 5cdb 553d 312d 2fbe a6fa 33be
00000160: 16b5 4dbe 078c 81be 1bb1 37be 3d52 8f3e
00000170: 6153 923e 7523 963d 6ab3 263e b443 94be

linear_relu_stack2.4.bias f4 [8]
-0.2547364 -0.09005746 -0.022277672 -0.2717693 -0.2660376 0.25088564 -0.28581345 -0.14475511
00000000: cf6c 82be 0c70 b8bd aa7f b6bc 5825 8bbe
00000010: 1536 88be 1574 803e 2456 92be af3a 14be
