Other Experiments/data_reuploading/TUE/nq:4_nl:2_nd:10/it3_49.pt (torch, 808 bytes, 1 tensors)

qlayer2.weights f4 [16]
0	0x40aa499d	5.321486
1	0x3eca1ed8	0.39476657
2	0x409765a3	4.731157
3	0x40ac604b	5.3867545
4	0x3fb081fb	1.3789667
5	0x40399cba	2.9001908
6	0x40a95277	5.2913165
7	0x404df1f8	3.2178936
8	0x4076a2f5	3.853696
9	0x404cda7d	3.2008355
10	0x40985269	4.76006
11	0x408ecbb5	4.4623666
12	0x40171401	2.360596
13	0x40ac01c8	5.3752174
14	0x3f580112	0.84376633
15	0x3f806ee8	1.0033846
