Other Experiments/data_reuploading/TUE/nq:4_nl:5_nd:5/it3_27.pt (torch, 936 bytes, 1 tensors)

qlayer2.weights f4 [40]
3.6260738 5.5482864 1.8238102 4.328968 0.17899436 2.5583117 5.858645 4.003751
4.7957664 4.3768725 3.800174 1.8787681 2.213544 1.0358915 4.135111 4.695757
4.2021694 0.18710314 5.4756823 0.7904388 5.6407 1.2312961 0.6039127 4.9821463
5.6764746 4.557128 2.0919657 4.7348194 2.145514 3.1129148 2.6553843 4.684841
0.47679606 6.2640557 5.426464 4.387205 0.60335803 3.066737 5.5269914 2.4368587
00000000: 9811 6840 908b b140 9d72 e93f e886 8a40
00000010: 4c4a 373e 61bb 2340 057a bb40 ba1e 8040
00000020: eb76 9940 570f 8c40 0d36 7340 797b f03f
00000030: b4aa 0d40 1898 843f d452 8440 a443 9640
00000040: 2c78 8640 f797 3f3e ca38 af40 325a 4a3f
00000050: 9d80 b440 1c9b 9d3f 069a 1a3f be6d 9f40
00000060: aea5 b540 fed3 9140 c4e2 0540 a483 9740
00000070: 1a50 0940 ff39 4740 d1f1 2940 38ea 9540
00000080: 9d1e f43e 2573 c840 98a5 ad40 fc63 8c40
00000090: ac75 1a3f 6b45 4440 1ddd b040 7ef5 1b40
