Other Experiments/data_reuploading/TUE/nq:4_nl:5_nd:50/it0_10.pt (torch, 936 bytes, 1 tensors)

qlayer2.weights f4 [40]
5.647046 2.3066473 3.451235 4.7842555 4.9621825 0.9347078 0.24581529 1.7224416
1.2578896 3.5176594 2.221653 5.354645 0.6957423 3.3451805 0.4035356 1.6072848
0.11803913 4.9555297 1.9619226 3.895421 5.7511644 0.032858487 6.0215583 1.5648507
5.5220613 5.505935 4.833645 0.42268914 0.43207267 0.0021297825 5.9730783 1.3910577
4.8640666 3.2859259 5.2070117 0.50819963 3.5621672 1.745101 1.9134457 1.3783002
00000000: 9ab4 b440 1ca0 1340 09e1 5c40 9f18 9940
00000010: 33ca 9e40 0349 6f3f 01b7 7b3e f778 dc3f
00000020: 8702 a13f 5521 6140 902f 0e40 4059 ab40
00000030: 2b1c 323f 7017 5640 389c ce3e 82bb cd3f
00000040: 80be f13d b393 9e40 4820 fb3f 944e 7940
00000050: 8a09 b840 9f96 063d 9bb0 c040 074d c83f
00000060: bab4 b040 9f30 b040 38ad 9a40 b66a d83e
00000070: a138 dd3e d293 0b3b 7523 bf40 2e0e b23f
00000080: 6fa6 9b40 9c4c 5240 d79f a640 5f19 023f
00000090: 8cfa 6340 785f df3f caeb f43f 246c b03f
