Other Experiments/data_reuploading/TUE/nq:4_nl:5_nd:50/it2_46.pt (torch, 936 bytes, 1 tensors)

qlayer2.weights f4 [40]
3.0616431 0.38632652 1.8024275 1.1130036 3.3491416 0.44938204 3.731011 5.511292
0.32196444 1.7865745 2.8829622 0.4116369 5.8072124 4.1965165 5.602554 2.340777
6.0743036 6.0527377 1.868721 4.1528025 1.4539471 1.2051162 1.315074 3.5214937
1.7372762 4.4753814 5.2361155 3.2643225 0.9707242 2.1736636 2.010885 5.323959
3.5174909 0.8672777 1.2112961 5.183297 1.0658214 2.5929978 5.870894 2.2872763
00000000: f6f1 4340 97cc c53e f2b5 e63f e776 8e3f
00000010: 5658 5640 6715 e63e e2c8 6e40 815c b040
00000020: 86d8 a43e 79ae e43f 7482 3840 12c2 d23e
00000030: afd4 b940 dd49 8640 1f48 b340 4acf 1540
00000040: b260 c240 07b0 c140 4032 ef3f c2e3 8440
00000050: f01a ba3f 3f41 9a3f 5854 a83f 2760 6140
00000060: 115f de3f 5336 8f40 428e a740 a9ea 5040
00000070: 6281 783f 4e1d 0b40 57b2 0040 df5d aa40
00000080: 921e 6140 e905 5e3f c00b 9b3f 92dd a540
00000090: d66c 883f adf3 2540 5dde bb40 bc62 1240
