Other Experiments/data_reuploading/TUE/nq:2_nl:10_nd:10/it0_40.pt (torch, 936 bytes, 1 tensors)

qlayer2.weights f4 [40]
0	0x3fbe807a	1.4882958
1	0x3f945855	1.1589457
2	0x40a6f94c	5.2179317
3	0x3fa0a7f3	1.2551254
4	0x4099ae0a	4.802495
5	0x402c48fd	2.6919549
6	0x40672ea0	3.6122208
7	0x40140b02	2.3131719
8	0x3fe27a79	1.7693626
9	0x3fbda4d3	1.4815925
10	0x3cb051a7	0.02152331
11	0x40435b88	3.0524616
12	0x40b7c2be	5.7425222
13	0x40888b02	4.2669687
14	0x400167a9	2.021952
15	0x3f49a3e4	0.787657
16	0x4097f0e5	4.748156
17	0x3f71f5c9	0.94515663
18	0x409963f6	4.7934523
19	0x409280b7	4.5782123
20	0x3f9aec49	1.2103359
21	0x4035ef19	2.8427184
22	0x406ceb63	3.7018669
23	0x403a630b	2.912295
24	0x400314e3	2.0481498
25	0x404e246c	3.220973
26	0x402d6a23	2.709603
27	0x40988fb4	4.767542
28	0x3f1225f2	0.5708915
29	0x40b99e62	5.800584
30	0x40a05302	5.010133
31	0x3fc76596	1.5577877
32	0x40be76ae	5.9519873
33	0x4080afca	4.0214586
34	0x408306bb	4.0945716
35	0x3f85a624	1.0441327
36	0x4058ea86	3.3893142
37	0x40b812a3	5.752275
38	0x4003b815	2.0581105
39	0x40104297	2.2540643
