Other Experiments/data_reuploading/TUE/nq:2_nl:10_nd:10/it1_20.pt (torch, 936 bytes, 1 tensors)

qlayer2.weights f4 [40]
00000000: 301a 9f40 ec6d f63f 815a 8140 92d7 6740
00000010: e8f2 a040 df63 bc3f 9903 ed3f a083 ef3e
00000020: 365d bb3f 61d1 7a40 8b2d a340 4478 763d
00000030: f5e5 c240 0332 8f40 7477 c140 085e a840
00000040: 8100 7f40 36ff 413f e5a0 fb3f 444b a940
00000050: eaee 3340 a0a5 5740 fba0 2a40 bdba 4a40
00000060: b80f 1b40 1ad4 ac40 5e00 c240 1122 ae40
00000070: eb26 5c40 49bb 8940 48bc c93e d174 033f
00000080: 186d 9d40 4bb4 a140 e7e1 8d40 3cef 4540
00000090: ee08 2e40 f28f b240 bae8 2940 7dd0 4040
4.9719467 1.9252295 4.042298 3.6225324 5.0296516 1.4717978 1.8516723 0.4678011
1.4637821 3.9190295 5.0993094 0.060173288 6.090571 4.474855 6.0458317 5.2614784
3.9844058 0.75780046 1.9658476 5.2904377 2.8114572 3.369484 2.6660755 3.1676476
2.4228344 5.4008913 6.062545 5.4416585 3.4398754 4.304112 0.3940146 0.5135012
4.919567 5.0532584 4.433826 3.0927267 2.719295 5.5800714 2.6548295 3.012725
