Other Experiments/data_reuploading/NQE/nq:2_nd:10/NQE_it0_44.pt (torch, 9709 bytes, 6 tensors)

layer1.0.weight f4 [1, 1, 3, 3]
000000 57 d9 04 3e a0 cc 31 3b cf 57 3a 3b c3 dc 93 3e
       0.12973534 0.0027130023 0.0028433686 0.28879365
000010 ad 90 2f 3e fc 58 91 3d c4 d9 8b 3e f9 78 c1 3e
       0.17145033 0.070970505 0.2731458 0.37787607
000020 8d 97 0c 3e
       0.13729687

layer2.0.weight f4 [1, 1, 3, 3]
000000 9e 51 5f 3e 57 51 80 3e be 32 b7 3b d2 17 0e be
       0.21808478 0.25062057 0.0055907657 -0.13876274
000010 3e d9 32 be 4e 1e d5 be 74 21 9e bd 13 3b 92 be
       -0.17465684 -0.41624683 -0.077212244 -0.28560695
000020 16 80 8c be
       -0.27441472

fc.0.weight f4 [32, 49]
000000 88 68 fc 3d e3 7d 87 3d db 25 e8 bc 6b 47 d4 3d
       0.12324625 0.06615808 -0.028338363 0.103651844
000010 08 88 01 3e db 6e 8e bd 22 e7 d6 bd 0f 3e d1 3d
       0.12649548 -0.06954738 -0.10493304 0.10216915
000020 a3 59 c7 3d 70 5a 80 3d a3 0a 19 be 6f 35 2d bd
       0.09733894 0.062672496 -0.14945464 -0.042287286
000030 4e 9f a3 3d 2f fd 6c 3c be 01 f9 bd 10 91 a4 bd
       0.07989369 0.014464661 -0.121585354 -0.08035481
000040 f7 25 18 bd 04 3a 23 3e b5 e6 97 bd ea 6f e6 bd
       -0.03714558 0.159401 -0.07417051 -0.11251815
000050 72 2d 00 be 40 91 49 3d 7f 77 cb 3d 00 fc 81 bd
       -0.12517336 0.049210787 0.099349014 -0.06346893
000060 af b1 34 3e cf 85 56 3d 50 2b 8a bd da 80 1f 3d
       0.17645906 0.052373704 -0.067465425 0.03894124
000070 6d cd ba 3c d9 ba f0 ba ba dd bd bd e8 6a b9 3d
       0.022803033 -0.0018366232 -0.092708066 0.09053594
000080 90 9f 85 bc 85 8b 99 3d 40 26 1b bd e7 5e fa 3c
       -0.016311437 0.07497314 -0.037878275 0.030562831
000090 42 b7 b0 bd 5f 9b 1a be 79 a2 08 be 0c 88 fb 3d
       -0.08628704 -0.15098332 -0.13343228 0.12281808
0000a0 66 4d 9f 3b e7 c7 b5 bd 4d cb 5f bb 83 ad 9e 3d
       0.0048615215 -0.08876019 -0.0034148276 0.077479385
0000b0 85 fe ce 3d 13 a5 0b bd 62 ae a4 bc e6 f3 be bc
       0.101071395 -0.034092974 -0.020102683 -0.02330966
0000c0 bd 79 f3 bb 3f 43 b9 bd 05 87 3d bd 4a f2 70 bd
       -0.007430284 -0.09046029 -0.046271343 -0.058824815
0000d0 98 9e 80 bd aa 11 7c bd 10 4f 11 3e a5 cc 72 3c
       -0.06280249 -0.061540283 0.14190316 0.014819299
0000e0 1d 07 09 3e f8 cd 08 3e 39 b6 f5 bd 0c 61 db 3c
       0.1338162 0.13359821 -0.11997647 0.026779674
0000f0 2c ac 9c 3d ac a8 01 be fa 7a 14 bd 36 fb 03 3e
       0.07650027 -0.12662 -0.036250092 0.12888798
000100 dd 5e e0 bb 30 d7 13 3e 8c 83 11 be c6 69 97 bd
       -0.006847246 0.14437556 -0.14210337 -0.073932216
000110 ab 25 1b 3d ca e0 45 bc 9d 82 a0 3d a7 bd bb 3d
       0.03787772 -0.01207752 0.078374125 0.09167033
000120 12 84 f3 bd 1c 0d 24 be e1 1d 00 be 1e 21 12 3e
       -0.11890425 -0.16020626 -0.12511398 0.14270446
000130 35 32 f6 3d f6 13 6f 3d 62 a0 0e bb e3 5d 09 3e
       0.12021295 0.058368646 -0.0021763076 0.13414721
000140 ad 50 60 bd 3c ec 0b bd bd f9 cf 3d a2 f2 d3 3d
       -0.05476444 -0.034160838 0.10155056 0.10349013
000150 cd 19 8d 3d 88 62 3f 3d 2b 08 a8 bd ad 47 12 3e
       0.06889687 0.046724826 -0.08204683 0.14285155
000160 3e 49 0b be 15 6c 06 be 6d 16 03 be 5c f7 98 bd
       -0.13602158 -0.13127168 -0.12801524 -0.07469055
000170 fc 36 e8 bb c1 6a 8a 3c e7 40 65 3d e8 7c a0 bd
       -0.007086633 0.016896607 0.0559701 -0.07836324
000180 08 1f 9a bd e3 ee f8 3d fe 51 07 be 15 51 d4 3d
       -0.0752545 0.12154939 -0.13214871 0.10367028
000190 5c b0 10 be f0 28 0d 3e fb a8 c8 3c 0e d9 a1 bd
       -0.14129776 0.13785148 0.024494639 -0.07902728
0001a0 08 0f bc 3d 49 6d a7 bd 55 d8 c6 3d 8c c0 da 3d
       0.091825545 -0.08175141 0.09709231 0.10681257
0001b0 5c 12 d8 3d f5 66 99 bd 38 2b bb ba 67 01 77 3d
       0.10550377 -0.074903406 -0.0014279848 0.06030407
0001c0 6a 7c 53 3d 5c 5a 0b 3e b7 ca 0a 3d ba ca b3 bd
       0.051632322 0.13608688 0.03388473 -0.087789014
0001d0 f4 30 06 3e 0f 6a 5e 3d 22 bf 00 be 85 1d 42 bd
       0.13104612 0.054300364 -0.12572911 -0.047391433
0001e0 04 2b ff 3d c9 a2 52 bd 26 af c9 bd 7a 81 61 bd
       0.124593765 -0.051424775 -0.0984786 -0.05505512
0001f0 4e d3 b3 bd ba a1 ed 3b 06 73 1c bc a1 3b 72 bd
       -0.087805375 0.0072519453 -0.009548908 -0.059138898
000200 a7 bf 9c 3d cf 66 4b 3d 26 a1 05 bd f6 8f 0d be
       0.07653742 0.049658593 -0.032624386 -0.13824448
000210 2d 6f 0f be 82 bd 72 bd d9 05 28 3d 26 51 be 3d
       -0.14007254 -0.05926276 0.0410212 0.092928216
000220 1b 02 54 bb 1a 42 d2 3d 79 95 0c be 5d 16 5b bd
       -0.0032349888 0.10266514 -0.13728894 -0.053488124
000230 d9 cb 47 3d c3 fa eb bd b3 3c 7a bc 24 24 33 bd
       0.04877839 -0.115224384 -0.015273261 -0.04373564
000240 3b 1e 10 3e d3 fc 5e bd 4e 26 f6 3c 7a 7f c6 3d
       0.14074032 -0.05444033 0.030047562 0.09692283
000250 9a 1d a7 3d 0f f9 24 3d 50 a5 e2 3d d9 7a 85 3d
       0.08159943 0.040276583 0.11066687 0.06517572
000260 0b 5e 05 3d 37 78 a1 bd fc e2 a2 3c 03 72 b2 3d
       0.03256039 -0.07884257 0.019883625 0.08713152
000270 fb 6b 8d bd 21 aa 1a 3d 27 ea 2e bd 34 0c d1 bd
       -0.06905361 0.037759904 -0.042703774 -0.10207406
000280 db a0 a0 3d 77 81 a8 bd 1b 9f 91 bd 53 d4 8d bd
       0.07843181 -0.082278185 -0.07110425 -0.06925263
000290 40 0b 03 be af 7e ca bd b7 98 0a 3e ad 68 49 3d
       -0.1279726 -0.09887444 0.13534819 0.049172092
0002a0 be 85 b6 bc 07 34 c2 bd a1 5a 6b 3d 00 a1 24 3d
       -0.02228057 -0.0948258 0.057459477 0.040192604
0002b0 6f 94 43 3d 94 19 98 bd fa d5 b4 3d 42 7f a7 bd
       0.04774898 -0.07426754 0.08829875 -0.081785694
0002c0 95 10 35 bd a9 9f c8 ba 61 2a 96 3d 0c 5e 9c bd
       -0.044205267 -0.0015306371 0.07332302 -0.076351255
0002d0 86 8e 7b 3c 2f e8 cd 3c 28 18 a6 3d e8 ba 92 3d
       0.015353804 0.025135128 0.08110076 0.07164556
0002e0 5f 1d 69 bd 41 62 5f bd fe 5e a5 bd 7e 2f ba 3d
       -0.056912776 -0.05453706 -0.08074759 0.0909109
0002f0 74 e4 08 bc 78 28 ce 3a 59 8f 3e bd 62 9c 5e bc
       -0.008355249 0.0015728613 -0.046523426 -0.013587089
000300 9a 31 d1 3d 5e 7b 9c 3d ca d1 af bd e2 86 06 3e
       0.10214539 0.07640718 -0.08584936 0.13137391
000310 eb 9c 78 3d f1 2a e2 bd 6b 7a ce 3d 3f c9 e7 3d
       0.060696524 -0.11043347 0.10081943 0.113176815
000320 f9 c3 af bd be 5d 09 bd 6e f8 f8 3d f7 3c 69 bd
       -0.08582301 -0.033536665 0.12156759 -0.056942906
000330 25 df a2 3d 14 f6 0e be 49 b7 52 bd b7 f0 68 bd
       0.07952718 -0.13961059 -0.051444326 -0.05687019
000340 54 ef 13 be cb 17 c2 3d 8c db 82 3c db f2 07 3e
       -0.14446765 0.094771944 0.015973829 0.13276236
000350 0a 82 5a bc 73 e6 0d 3e 4f 88 85 bb 4a ce 9f bd
       -0.013336668 0.1385744 -0.004075087 -0.078030184
000360 a2 a6 48 3d 50 20 f9 3c d4 12 c3 3d e9 ea 8f bc
       0.04898704 0.030410916 0.095250756 -0.017568069
000370 c9 f4 2e 3e 94 2e 8a bd 56 d4 8e 3d 61 22 7a 3d
       0.17085566 -0.06747165 0.069740936 0.061067943
000380 54 21 f6 bd 1b 7e 1e be af 52 13 be 3a 4c 48 bc
       -0.120180756 -0.15477793 -0.1438701 -0.012225205
000390 fe 40 cd bd a4 c1 0e 3e 2c e4 f1 3c d7 a4 8d bd
       -0.10022162 0.13941056 0.029527746 -0.06916206
0003a0 80 7d 4b 3d 98 4d ad 3d 02 66 05 3e 7b 90 ca 3d
       0.049680233 0.084620655 0.13027194 0.09890839
0003b0 cc 0e 87 bd 28 65 90 3d ea 21 ca bb 5e 66 f4 bc
       -0.06594619 0.07050544 -0.0061685937 -0.029833969
0003c0 d2 00 5c 3d be 97 a5 3d f8 95 6c 3d 8e a6 39 bc
       0.05371172 0.08085583 0.05776021 -0.011331214
0003d0 a8 b2 a8 bc 1b e3 76 bc 94 72 fc bd fe 03 20 bd
       -0.020593002 -0.015068795 -0.123265415 -0.039066307
0003e0 88 91 e3 3c 4b 4b 5a bd 22 07 b4 3d a6 d7 d6 3a
       0.027779356 -0.05329446 0.08790423 0.0016391173
0003f0 d9 08 23 bd 4c a0 01 bd ec 9f 98 bd 66 b6 00 bd
       -0.03980336 -0.03164701 -0.07452378 -0.03142395

fc.0.bias f4 [32]
000000 ce 12 c0 bd 76 5f c2 bc c1 cb 4b 3b 9c d1 57 3d
       -0.09378587 -0.02372716 0.0031096789 0.052690133
000010 ee fa 41 bb e6 db 0e be c2 76 3d 3d ed 81 86 bd
       -0.0029599029 -0.13951072 0.046255834 -0.0656775
000020 ea e3 16 3e 2c d3 8b 3c 4d 19 41 bd 8f 12 c1 3b
       0.1473538 0.017068468 -0.04714327 0.005892105
000030 de 4c 7b 3d 75 d5 1b 3d 49 17 98 3d 12 ef e6 bd
       0.061352603 0.038045365 0.07426316 -0.11276068
000040 04 48 a1 bd 0f f7 63 3d 99 17 f6 3d 10 22 f9 bd
       -0.07875064 0.055655535 0.1201622 -0.121647
000050 cd 8e 0c 3e 26 00 ce bd 10 65 1e 3d 99 49 56 3c
       0.13726349 -0.10058622 0.0386706 0.0130790705
000060 a7 f3 94 3d cf 97 b3 3c f2 f6 62 bc f3 f2 44 3d
       0.072730355 0.021922974 -0.013852822 0.048083257
000070 7b c9 33 bd eb 76 8a 3c 73 62 c4 bc be 76 66 3d
       -0.04389332 0.016902408 -0.023972725 0.056265585

fc.1.weight f4 [3, 32]
000000 e6 b3 12 be f2 56 0d 3e 0f f5 d3 bd ff 63 ac 3d
       -0.14326438 0.13802698 -0.103494756 0.0841751
000010 1c 2d b6 3d 15 ad af bd 9f 3c 34 be ee 3e ca bd
       0.08895323 -0.08577935 -0.1760125 -0.09875284
000020 3a 32 4e 3d 20 b5 4e 3e 71 78 9f bd 60 54 e9 bc
       0.05034087 0.20186281 -0.07786644 -0.028482616
000030 e1 89 0f 3e 2a f9 3d 3e 79 46 46 3d 79 a5 50 bd
       0.1401744 0.1855208 0.04840705 -0.050939057
000040 04 91 38 3d 92 64 71 bc d3 ef 23 be fc f8 97 3d
       0.045060173 -0.0147334505 -0.16009454 0.07420537
000050 57 6a fc bd 12 80 60 3d 1a c8 a9 bd 12 66 85 3d
       -0.1232497 0.054809637 -0.082901195 0.06513609
000060 b3 9e 52 bd b2 26 56 bd c3 80 ab 3c f0 10 09 3e
       -0.05142088 -0.052282996 0.020935422 0.13385367
000070 b5 48 ab bd 7e 4b f6 3d 33 ab 7e ba 97 5a a5 bd
       -0.08363477 0.12026118 -0.0009714842 -0.08073919
000080 39 5c 6f be e0 9c 19 3e df fa e4 3b a4 bf 0a bd
       -0.23375024 0.1500125 0.006987914 -0.03387417
000090 56 f7 84 be fd bf ea bd 5a b1 6e be 6e 8b d4 bd
       -0.25969952 -0.114624 -0.23309842 -0.103781566
0000a0 02 bd db 3d db 86 6c 3e 5a 0a 64 3d 12 4a 21 bd
       0.1072941 0.23098318 0.055673935 -0.03937728
0000b0 07 99 aa bd 94 20 40 3e 54 06 4d be 64 ba ef bd
       -0.08329969 0.18762428 -0.20021945 -0.11705473
0000c0 fe 2e 86 be f6 d8 c2 3d 8c 59 13 3e 2b 63 36 bc
       -0.26207727 0.09514038 0.14389628 -0.011132042
0000d0 76 6c 4e bd e8 99 16 3e 31 8a 49 bd 1f 53 b8 3d
       -0.050396405 0.14707148 -0.049204055 0.09000229
0000e0 4d c6 7a be 4f 8a 85 3d 2c 41 f1 3d fe 7e a5 3c
       -0.24489708 0.06520521 0.11780009 0.020202156
0000f0 ae 0d c8 bd 3d 84 45 3d 36 ac 9e bd 9a e5 52 be
       -0.09768234 0.048221815 -0.077476904 -0.20595399
000100 b8 5a 3c be da 63 ab bd 74 1c 3f 3e 00 3e 12 be
       -0.18393981 -0.083686545 0.18663198 -0.14281464
000110 cc 9a 9f 3d 85 1d 09 3e 63 29 00 3d 07 9d 73 3d
       0.07793197 0.13390167 0.03128947 0.059475925
000120 20 5d 33 be 57 f8 26 3e 5a ca a6 3d 87 e7 46 3e
       -0.17515993 0.16305672 0.08144064 0.19424258
000130 f6 2a 15 bd e7 cb 74 bd 14 fa f2 bd 33 d7 3c 3d
       -0.036417924 -0.05976477 -0.11864105 0.046103667
000140 6a 45 5e be e3 65 e2 bd 75 93 ad bc 88 fc 1f be
       -0.21706167 -0.110545896 -0.021188477 -0.15623677
000150 ab 8d 2f 3b 33 46 8f bd 88 9e a4 bd 6f 85 f1 3d
       0.0026787322 -0.06995811 -0.0803805 0.117930286
000160 6b f9 7a 3d 3f 63 d7 bd 98 95 d9 bd e6 50 49 bd
       0.06127302 -0.105169766 -0.10624236 -0.049149416
000170 bf 5d 53 3d 7f 56 a5 3d 4f f0 4a 3c 4a 4e b1 bd
       0.051603075 0.080731384 0.012386396 -0.086575106

fc.1.bias f4 [3]
000000 92 c5 b2 b7 e1 06 1b 3e 06 c4 f2 bd
       -2.1311254e-05 0.15139343 -0.11853795
