Other Experiments/data_reuploading/NQE/nq:2_nd:10/NQE_it4_14.pt (torch, 9709 bytes, 6 tensors)

layer1.0.weight f4 [1, 1, 3, 3]
-0.15150952 0.13165055 -0.027093967 -0.06273792 0.30586284 0.22999345 0.2649937 -0.11167559
-0.03700854
00000000: 5025 1bbe 67cf 063e 2bf4 ddbc bd7c 80bd
00000010: 0e9a 9c3e 6783 6b3e 41ad 873e 2cb6 e4bd
00000020: 4496 17bd

layer2.0.weight f4 [1, 1, 3, 3]
0.3192469 0.057654373 0.19521156 0.18349938 -0.24073401 -0.21136633 -0.017998736 -0.26676264
-0.24985904
00000000: 5474 a33e fe26 6c3d 8ae5 473e 43e7 3b3e
00000010: fa82 76be 6a70 58be 1672 93bc 1d95 88be
00000020: 0cdb 7fbe

fc.0.weight f4 [32, 49]
-0.08358755 -0.057246808 0.06224324 0.06508049 -0.031682372 0.004052452 -0.09772124 -0.007178954
0.07791337 0.13144556 0.03372094 0.09722471 0.11314245 0.029444423 -0.030772075 0.050463933
0.029145248 0.07472747 -0.002374516 0.05990175 -0.055218887 0.025528092 0.092340544 -0.055983655
-0.08010397 -0.07515651 0.13160326 -0.06082094 0.055410117 0.017198086 0.09915999 -0.02691458
0.037007585 0.019180622 -0.08025533 -0.12377217 -0.087159924 -0.12855004 -0.09618716 -0.058936775
0.107139066 0.029822832 0.049402647 0.13276544 -0.09845601 -0.018892033 -0.00087857916 0.051254228
0.070571475 0.08344916 0.0008392164 0.0792578 -0.062123097 -0.037076067 0.11041046 0.12001537
-0.062004875 0.032756824 0.0033546519 0.0030371323 -0.0176307 0.07321484 0.004526769 0.014417155
0.06850269 -0.09975972 0.08157749 0.0379851 -0.00017184645 -0.09596016 -0.037627086 0.010926758
-0.09823351 0.108317405 0.030533005 -0.001377733 0.12952822 0.06361984 -0.1022004 0.11758806
0.022142602 0.101127006 0.07605384 -0.093898 -0.031522583 -0.11997624 0.032398444 -0.00025662908
0.0969942 0.034690026 -0.091004945 -0.068942785 0.086594895 0.062476546 -0.024959585 -0.035180375
0.04595092 -0.10937284 0.10160019 0.027625732 -0.13612774 -0.12999254 0.033267703 0.036705256
-0.024468167 -0.041761655 -0.09988717 -0.045578346 0.05588389 -0.02757351 -0.09825816 -0.046781067
-0.13831827 0.11484632 -0.008729321 0.018721515 -0.12168723 -0.040378362 0.07794849 0.018611431
-0.03845898 -0.10385645 0.06148871 0.13341837 -0.0073114005 -0.12786956 0.05726135 -0.025292756
-0.07132023 0.011898187 0.09741268 -0.012098502 -0.13372907 0.098944105 -0.080141224 0.10776858
0.013638178 0.109655336 -0.11947431 -0.03781847 -0.056906022 0.043006305 0.004746868 -0.03045081
0.12564817 -0.12427488 0.07057109 -0.09577058 -0.12388858 -0.010330796 0.021421928 0.0916658
0.041223817 -0.009219646 -0.14153557 0.047069773 0.08252504 -0.09249255 -0.04253959 -0.09418088
0.08609386 -0.080914706 -0.0006845679 -0.0036915098 0.017222023 0.116962336 0.12190239 0.018679023
0.016544973 0.0745366 -0.019952126 -0.05684841 -0.084121786 0.08324637 -0.070399575 0.052895106
-0.12400064 0.03709834 -0.09089216 -0.019305065 -0.017693516 -0.10785131 0.047743034 -0.005433747
0.072823696 -0.022818295 -0.038354218 -0.0023360888 -0.1225501 0.13786463 -0.0861108 0.0072618793
0.076824464 0.02270881 -0.11629144 -0.033458866 0.13386819 -0.011429788 0.07261173 -0.078510374
0.061080474 -0.059714388 0.10903231 0.118857235 0.13863789 0.06587741 -0.015706379 0.096601665
0.055447266 -0.11901876 -0.057035636 0.10567577 0.068004414 -0.09544106 -0.0785116 0.074151665
0.037492447 0.052848358 0.117477916 0.06975344 0.13643678 -0.07511446 -0.04021255 -0.09159053
0.0063550477 0.098305725 -0.09382786 0.000118844546 -0.00021008804 -0.11786886 0.03676932 -0.089907005
0.011047126 -0.0064221043 -0.10813548 0.13772003 -0.0021363923 0.06832135 0.009853023 0.13995045
0.13472362 0.11922354 -0.14300928 -0.02219587 -0.12884247 -0.11535984 0.041789245 0.008995397
-0.08427506 0.005403025 0.062842764 -0.08574539 0.027196035 0.029303398 0.080449276 -0.11787944
00000000: f32f abbd a17b 6abd c5f2 7e3d ec48 853d
00000010: 60c5 01bd 6eca 843b 1322 c8bd 6e3d ebbb
00000020: 0c91 9f3d aa99 063e f81e 0a3d c01d c73d
00000030: 3bb7 e73d 6e35 f13c b815 fcbc 45b3 4e3d
00000040: 04c2 ee3c b70a 993d c59d 1bbb 8a5b 753d
00000050: 332d 62bd 4a20 d13c 0a1d bd3d 1e4f 65bd
00000060: 8d0d a4bd a8eb 99bd 01c3 063e 611f 79bd
00000070: b8f5 623d 00e3 8c3c 6514 cb3d f77b dcbc
00000080: 4495 173d ae20 9d3c e85c a4bd 437c fdbd
00000090: e780 b2bd 9fa2 03be c6fd c4bd b067 71bd
000000a0: ba6b db3d 034f f43c 6e5a 4a3d aaf3 073e
000000b0: 4ea3 c9bd 77c3 9abc 7350 66ba f4ef 513d
000000c0: c787 903d 65e7 aa3d dcfe 5b3a ea51 a23d
000000d0: ca74 7ebd 13dd 17bd e11e e23d 9eca f53d
000000e0: d3f8 7dbd 052c 063d b8d9 5b3b a00a 473b
000000f0: 426e 90bc a9f1 953d 4a55 943b ee35 6c3c
00000100: 234b 8c3d d34e ccbd 1912 a73d 4496 1b3d
00000110: ae31 34b9 c386 c4bd dc1e 1abd 2506 333c
00000120: a72e c9bd 84d5 dd3d 5a20 fa3c 0c95 b4ba
00000130: 0ca3 043e 1e4b 823d 714e d1bd 02d2 f03d
00000140: 6764 b53c ad1b cf3d 1ec2 9b3d 984d c0bd
00000150: d31d 01bd 1ab6 f5bd 3bb4 043d 2c8c 86b9
00000160: e5a4 c63d 2117 0e3d cd60 babd e031 8dbd
00000170: aa58 b13d 68e7 7f3d 0b78 ccbc 4c19 10bd
00000180: 0837 3c3d defe dfbd c313 d03d 5c4f e23c
00000190: 1265 0bbe c41c 05be b743 083d 4058 163d
000001a0: 7771 c8bc 450e 2bbd a591 ccbd 5cb0 3abd
000001b0: 81e6 643d d7e1 e1bc 933b c9bd 819d 3fbd
000001c0: 4ea3 0dbe 8c34 eb3d 6d05 0fbc dd5d 993c
000001d0: 2837 f9bd c863 25bd 75a3 9f3d 0077 983c
000001e0: 2a87 1dbd b1b2 d4bd 96db 7b3d d39e 083e
000001f0: 7994 efbb 3df0 02be e18a 6a3d c132 cfbc
00000200: 5710 92bd 9df0 423c 4d80 c73d cc38 46bc
00000210: 46f0 08be 35a3 ca3d 1521 a4bd c6b5 dc3d
00000220: aa72 5f3c fa92 e03d f2ae f4bd 8ae7 1abd
00000230: 4a16 69bd 6127 303d 9d8b 9b3b fa73 f9bc
00000240: eaa9 003e d483 febd 9387 903d 5e23 c4bd
00000250: 4cb9 fdbd 8042 29bc 0a7d af3c 47bb bb3d
00000260: 4eda 283d 000e 17bc b3ee 10be 3ccc 403d
00000270: e302 a93d bc6c bdbd fe3d 2ebd e8e1 c0bd
00000280: fa51 b03d 9cb6 a5bd 9374 33ba 42ed 71bb
00000290: 3315 8d3c f389 ef3d f6a7 f93d c004 993c
000002a0: 5389 873c a5a6 983d a472 a3bc e1d9 68bd
000002b0: 0b48 acbd 137d aa3d a72d 90bd 8aa8 583d
000002c0: 0cf4 fdbd 6ef4 173d ab25 babd a825 9ebc
000002d0: fef1 90bc 26e1 dcbd 338e 433d 930d b2bb
000002e0: 9724 953d 6fed babc 5019 1dbd 1119 19bb
000002f0: 8cfb fabd 632c 0d3e dc5a b0bd 0ff5 ed3b
00000300: 2556 9d3d d407 ba3c 352a eebd 2a0c 09bd
00000310: be14 093e 0144 3bbc 75b5 943d 0cca a0bd
00000320: 852f 7a3d 1397 74bd 554c df3d 6c6b f33d
00000330: 17f7 0d3e bcea 863d aaaa 80bc 18d7 c53d
00000340: ac1c 633d 1cc0 f3bd 339e 69bd 8a6c d83d
00000350: e645 8b3d 9a76 c3bd b1ca a0bd d4dc 973d
00000360: ae91 193d 8577 583d 4398 f03d e4da 8e3d
00000370: 15b6 0b3e 9cd5 99bd eab5 24bd d193 bbbd
00000380: 013e d03b 8354 c93d d228 c0bd 2e3c f938
00000390: 144b 5cb9 3b65 f1bd 6d9b 163d 2a21 b8bd
000003a0: 01ff 343c 8470 d2bb 2276 ddbd 7b06 0d3e
000003b0: b702 0cbb 10ec 8b3d 936e 213c 2c4f 0f3e
000003c0: fdf4 093e 792b f43d 0671 12be 1dd4 b5bc
000003d0: 48ef 03be c841 ecbd 332b 2b3d 6e61 133c
000003e0: 6798 acbd dc0b b13b b5b3 803d 479b afbd
000003f0: 38ca de3c ae0d f03c 97c2 a43d c76a f1bd

fc.0.bias f4 [32]
0.041703317 -0.10047614 -0.10551406 -0.040271435 0.045481205 0.08331348 -0.002346962 -0.058467884
0.11640029 -0.094862215 -0.08201047 -0.030799812 -0.090921976 -0.005713471 0.08553887 0.10763887
0.1354045 0.037729952 0.025898406 0.082608834 -0.04463597 -0.09931822 0.061275214 -0.049650963
0.036613427 0.07579725 0.11508144 -0.06029772 0.13790518 0.05987558 0.027252411 -0.09428188
00000000: 19d1 2a3d 6fc6 cdbd c117 d8bd a9f3 24bd
00000010: 804a 3a3d 42a0 aa3d 7dcf 19bb 057c 6fbd
00000020: 4663 ee3d 1f47 c2bd 1bf5 a7bd e34f fcbc
00000030: 4d35 babd 1238 bbbb 012f af3d c571 dc3d
00000040: 7aa7 0a3e b98a 1a3d e528 d43c d22e a93d
00000050: 35d4 36bd 5a67 cbbd b8fb 7a3d cf5e 4bbd
00000060: f6f7 153d 973b 9b3d d1af eb3d befa 76bd
00000070: 0437 0d3e 1940 753d 7340 df3c dc16 c1bd

fc.1.weight f4 [3, 32]
-0.081003875 0.022745876 0.1588748 -0.047716144 0.14795792 0.02880636 0.11669241 0.11171651
-0.07178839 -0.09996731 0.061626013 0.045901865 0.11068548 0.13127454 0.14115098 0.096630186
0.16099276 -0.020221073 0.016300818 -0.13273251 0.02503228 -0.09362604 0.079176456 -0.04233879
-0.13857567 0.17251028 0.13644242 -0.1047121 0.16140115 0.08180501 0.1699278 -0.17412929
-0.17172828 0.045470573 0.0026465901 0.12352813 0.060347553 -0.15076867 -0.11197954 -0.040274944
0.06091102 -0.058828287 0.07939 -0.066463366 0.0379009 0.043874234 -0.005082468 -0.13699217
-0.01331272 0.05325064 -0.053152837 0.04657653 0.15472844 0.07718488 -0.07407984 -0.03837859
0.13610399 0.1291944 -0.10834902 -0.11165051 -0.12531216 -0.11170912 0.11774716 0.12750986
0.07943282 -0.04975271 0.15936084 0.16371138 0.09903584 0.0992635 -0.08479434 0.05629932
-0.08968859 -0.047356248 0.16048732 -0.0275491 -0.12699662 0.052149747 -0.14814036 0.09093624
0.08983343 0.004068148 -0.17213447 0.11254853 0.17636532 0.045861013 0.06608834 -0.16291939
-0.16202445 0.16338915 -0.12534472 -0.1280567 0.0314815 -0.063959405 0.010108626 0.037909683
00000000: 5ce5 a5bd 8f55 ba3c 13b0 223e 0172 43bd
00000010: 4882 173e 51fb eb3c 6efc ee3d a0cb e43d
00000020: cb05 93bd a9bb ccbd 8f6b 7c3d 9803 3c3d
00000030: 12af e23d d56c 063e e289 103e 0ce6 c53d
00000040: 49db 243e aaa6 a5bc 4b89 853c 08eb 07be
00000050: 7f10 cd3c 02bf bfbd 4427 a23d 706b 2dbd
00000060: c8e6 0dbe 89a6 303e 90b7 0b3e 4c73 d6bd
00000070: 5846 253e 6389 a73d 8e01 2e3e f34e 32be
00000080: 8ad9 2fbe 5a3f 3a3d 6a72 2d3b 51fc fc3d
00000090: ff2e 773d 1a63 1abe 8755 e5bd 57f7 24bd
000000a0: d57d 793d eef5 70bd 3997 a23d f21d 88bd
000000b0: f93d 1b3d 78b5 333d d58a a6bb ad47 0cbe
000000c0: 981d 5abc 581d 5a3d cab6 59bd 08c7 3e3d
000000d0: 2271 1e3e 1b13 9e3d 2cb7 97bd de32 1dbd
000000e0: d85e 0b3e 894b 043e 17e6 ddbd 06a9 e4bd
000000f0: d551 00be c0c7 e4bd 6c25 f13d f291 023e
00000100: adad a23d 7fc9 4bbd 7d2f 233e f5a3 273e
00000110: 4dd3 ca3d a94a cb3d a8a8 adbd 1e9a 663d
00000120: a7ae b7bd a0f8 41bd ca56 243e a6ae e1bc
00000130: 670b 02be f99a 553d 1bb2 17be c83c ba3d
00000140: 97fa b73d 194e 853b 0544 30be d87f e63d
00000150: 1c99 343e c2d8 3b3d 5359 873d 57d4 26be
00000160: bde9 25be 7c4f 273e 5e5a 00be 4c21 03be
00000170: bff2 003d 26fd 82bd a79e 253c 2f47 1b3d

fc.1.bias f4 [3]
-0.056289803 0.14489491 0.0095750345
00000000: 2390 66bd 555f 143e 9be0 1c3c
