Other Experiments/data_reuploading/NQE/nq:2_nd:10/NQE_it3_29.pt (torch, 9709 bytes, 6 tensors)

layer1.0.weight f4 [1, 1, 3, 3]
0	0x3e8d913a	0.27649862
1	0x3e2adf0e	0.16686651
2	0x3eb3f7af	0.35149905
3	0x3e3bbc48	0.18333542
4	0x3da3259d	0.079661585
5	0xbe8a6ad5	-0.2703463
6	0x3e700ab0	0.23441577
7	0x3df447f2	0.11927785
8	0x3adcd075	0.0016846793

layer2.0.weight f4 [1, 1, 3, 3]
0	0x3e0d98ba	0.13827792
1	0x3e194862	0.14969018
2	0xbe312c0a	-0.17301956
3	0x3ead2b88	0.33822274
4	0xbdbe51a8	-0.092929184
5	0x3e9aa76b	0.30205855
6	0x3edeba82	0.4350167
7	0xbe108fa0	-0.14117289
8	0xbea4f7b1	-0.32220224

fc.0.weight f4 [32, 49]
0	0xbda55a6f	-0.080738895
1	0xbdcf3c92	-0.10118975
2	0x3da23cea	0.07921775
3	0x3db28daa	0.087184265
4	0x3db173b1	0.086646445
5	0xbc0b410e	-0.008499397
6	0x3e05dbde	0.13072154
7	0x3d9b9303	0.075964
8	0x3d654948	0.05597809
9	0xbdb22cb2	-0.08699931
10	0x3debd655	0.1151549
11	0x3d802460	0.06256938
12	0xbc2a6d98	-0.010402106
13	0xbe10a922	-0.14127019
14	0xbce4f013	-0.027946508
15	0xbdf1b941	-0.118029125
16	0x3df9936d	0.12186322
17	0x3d7c9126	0.06166186
18	0xbd3f2859	-0.046669338
19	0xbdb15542	-0.0865884
20	0x3dbe93e9	0.093055554
21	0xbd2e962e	-0.04262369
22	0xbd1d0983	-0.03833915
23	0xbe146a5e	-0.14493701
24	0x3db7a339	0.08966679
25	0x3e0272dd	0.1273913
26	0x3d941a1a	0.07231541
27	0x3df502ab	0.119633995
28	0xbd687d70	-0.05676025
29	0x3e099a08	0.13437665
30	0xbda53a84	-0.080678016
31	0xbd12e8b0	-0.03586644
32	0xbd279c63	-0.040920626
33	0xbd4221f9	-0.04739568
34	0xbdc5090e	-0.09620868
35	0xbde7d351	-0.11319602
36	0x3df1267b	0.11774918
37	0x3dd0e156	0.101992294
38	0x3d2e5c49	0.04256848
39	0x3d1c1f69	0.038115893
40	0xbd8f1897	-0.06987112
41	0x3e02ca94	0.1277259
42	0x3d7232fc	0.059130654
43	0xbd135277	-0.035967316
44	0xbce2e8e0	-0.027698934
45	0x3da3a745	0.079908885
46	0xbd390592	-0.045171328
47	0xbdfad63e	-0.12247895
48	0xbe05bd15	-0.1306041
49	0x3e0896e9	0.13338818
50	0xbc8e81ec	-0.017395936
51	0x3e0e449d	0.13893361
52	0xbd46b5dd	-0.048513282
53	0x3d1b94c3	0.037983667
54	0x3dfc6ebf	0.12325811
55	0x3db0dd98	0.08636016
56	0x3debf08b	0.11520489
57	0xbe11a33e	-0.14222428
58	0xbe02a684	-0.12758833
59	0xbd3d8b14	-0.046275213
60	0x3d786517	0.06064328
61	0x3a601974	0.00085487147
62	0xbca04d0e	-0.019567993
63	0x3c93cfe8	0.018043473
64	0x3de2e134	0.1107811
65	0x3d676d5f	0.05650079
66	0x3dcee536	0.10102312
67	0x3dd8e949	0.105913706
68	0xbd8a74b7	-0.06760543
69	0x3d82fe63	0.06396177
70	0x3d967aa1	0.07347608
71	0xbd9b7d72	-0.07592286
72	0xbe07d897	-0.13266216
73	0x3c18565e	0.009297935
74	0x3d1c0408	0.038089782
75	0xbd84a2bb	-0.06476351
76	0x3deb36b9	0.11485047
77	0x3d01e671	0.031713907
78	0x3d583a38	0.052789897
79	0xbe22cb20	-0.15897799
80	0x3ddc158a	0.10746296
81	0x3de7bbce	0.11315118
82	0x3cc74323	0.024324005
83	0xbdb41511	-0.087930806
84	0xbda91500	-0.082559586
85	0xbde64879	-0.11244292
86	0xbb5f3a85	-0.003406198
87	0xbcde5f65	-0.027145097
88	0xbda682f0	-0.08130443
89	0x3da396ac	0.07987723
90	0xbd28c86f	-0.041206773
91	0xbdc0b70d	-0.09409914
92	0xbd35721e	-0.044298284
93	0x3c9e3958	0.019314453
94	0xbda90244	-0.08252385
95	0x3cc0cebf	0.023536084
96	0x3e0dce64	0.13848263
97	0xbd408054	-0.046997383
98	0x3da800b0	0.08203256
99	0x3cb50a3a	0.022099603
100	0x3d4000e8	0.046875864
101	0xbdefe89c	-0.117142886
102	0xbda67f11	-0.08129705
103	0x3e0d8eb9	0.13823976
104	0xbda847a0	-0.082167864
105	0x3d22263e	0.03958725
106	0x3d83a83c	0.064285725
107	0x3dfe318a	0.124117926
108	0x3dbe1c54	0.09282747
109	0xbde03f77	-0.10949605
110	0x3d006c3b	0.031353217
111	0x3e1b7944	0.15182978
112	0xbe07186d	-0.13192911
113	0xbd4f0f88	-0.05055192
114	0xbd7e83c0	-0.062137365
115	0x3b5b4dab	0.0033463042
116	0xbd068f83	-0.032851707
117	0x3e0bcb2d	0.13651724
118	0xbd246073	-0.040131044
119	0xbd9ee5c2	-0.077586666
120	0xbde4f0ca	-0.11178739
121	0xbddd958b	-0.10819539
122	0x3d65859d	0.056035627
123	0x3d99b25f	0.07504725
124	0xbd3e1fb3	-0.04641695
125	0xbdbcc657	-0.09217518
126	0x3d520faf	0.05128449
127	0xbc09860b	-0.008393775
128	0xbd7d3439	-0.06181738
129	0xbe0634f8	-0.13106143
130	0xbdbe0561	-0.0927837
131	0x3e120272	0.14258745
132	0x3de3d09d	0.11123774
133	0x3d5fe188	0.054658443
134	0x3dd7fb4f	0.1054598
135	0xbde65871	-0.112473376
136	0xbd26f3d7	-0.040759888
137	0xbcff9314	-0.031198062
138	0xbd2b2f9e	-0.04179346
139	0x3e14e5da	0.14540806
140	0x3e00206a	0.12512365
141	0xbdafa95b	-0.08577224
142	0x3dfd5121	0.1236899
143	0x3d6e9d37	0.0582554
144	0x3de71cf1	0.11284817
145	0xbdb55647	-0.08854347
146	0xbdc86b4a	-0.09786089
147	0xbdf3b7ce	-0.11900292
148	0xbdae9f2b	-0.08526453
149	0x3e10b5e8	0.14131892
150	0xbdd8291c	-0.10554716
151	0x3dd1f3af	0.10251557
152	0xbe094b98	-0.13407743
153	0x3dd03082	0.10165502
154	0x3e0b77b3	0.1361988
155	0xbe11283e	-0.14175507
156	0xbcedb425	-0.029016564
157	0x3dd8ae65	0.10580138
158	0xbdd50de2	-0.104030386
159	0xbd6235a0	-0.055226922
160	0xbd3edeff	-0.046599384
161	0xbe0ae780	-0.13564873
162	0xbdcac165	-0.09900168
163	0xbdf6c60b	-0.120494924
164	0xbdc1e751	-0.09467948
165	0x3dc4d552	0.09611
166	0xbca17307	-0.01970817
167	0x3e17e2d3	0.1483262
168	0x3be93cdb	0.0071178502
169	0x3d0e4a09	0.034738574
170	0xbdba10cb	-0.09085234
171	0xbd8bd523	-0.06827762
172	0xbba0c163	-0.004905866
173	0xbd9565de	-0.0729482
174	0x3d2c705e	0.04209935
175	0xbdcb9d2e	-0.09942089
176	0x3de76025	0.11297635
177	0x3cb43dcb	0.022002121
178	0xbe0a5bd5	-0.13511594
179	0xbdf1fdf8	-0.11816019
180	0xbd72b1ef	-0.059251722
181	0xbd13dc61	-0.03609884
182	0x3dc49fed	0.09600816
183	0xbcf8723c	-0.030327909
184	0xbdb258a6	-0.087083146
185	0xbd0f8a88	-0.035044223
186	0x3d986dc0	0.07442808
187	0xbdd70aad	-0.10500083
188	0x3daed115	0.08535973
189	0xbd851f4b	-0.06500109
190	0x3df8a3b2	0.121405974
191	0xbd407b19	-0.046992395
192	0xbd98a8f4	-0.074541
193	0xbbe95864	-0.0071211327
194	0xbd551719	-0.05202398
195	0xbd71d4be	-0.059040777
196	0xbc3b73b9	-0.011441165
197	0xbc59ec4b	-0.013300966
198	0xbd36269b	-0.04447041
199	0x3b9172df	0.0044387425
200	0x3dc64720	0.09681535
201	0xbd91f71a	-0.07127209
202	0x3d959df3	0.07305517
203	0xbce7371e	-0.028224524
204	0x3e104a5e	0.14090869
205	0x3d04b63c	0.032400355
206	0x3b5c362a	0.003360162
207	0x3d8ebd40	0.0696969
208	0xbdfca763	-0.12336614
209	0xbc281916	-0.010259887
210	0x3a58c38b	0.0008268884
211	0xbe0b7ce8	-0.13621867
212	0x3d87b961	0.06627155
213	0xbd22a75b	-0.039710384
214	0xbb477bb7	-0.003043873
215	0x3db5e1ed	0.088809825
216	0xbdaf6a8a	-0.085652426
217	0xbdf98437	-0.12183421
218	0x3d112b6d	0.035441805
219	0xbd4448e7	-0.047921088
220	0xbdf231ca	-0.11825903
221	0x3d55a66c	0.052160665
222	0xbd513afa	-0.051081635
223	0x3dc689cd	0.09694252
224	0xbe0747c9	-0.13210978
225	0xba16dee9	-0.0005755262
226	0x3d6678db	0.0562676
227	0xbd220f5d	-0.039565433
228	0xbd9a8bfb	-0.075462304
229	0xbdc19012	-0.09451307
230	0xbe0813ae	-0.13288757
231	0xbd1c1dcb	-0.03811435
232	0xbac98b3a	-0.0015376576
233	0xbd0c10aa	-0.03419558
234	0xbd0075fb	-0.031362515
235	0x3d135a2b	0.035974663
236	0xbdabb423	-0.08383968
237	0xbc49a089	-0.012306341
238	0xbdd71211	-0.10501493
239	0x3c06d28d	0.00822891
240	0x3ab69c9e	0.0013932174
241	0xbc3bceed	-0.011462909
242	0x3df172b1	0.11789454
243	0x3d2da2b7	0.042391505
244	0x3c064b79	0.008196705
245	0x3c6d366f	0.01447831
246	0x3df369aa	0.11885388
247	0x3e098c7d	0.13432498
248	0x3c9b5ba0	0.018964589
249	0x3cd8b422	0.026453082
250	0xbd64f1fb	-0.055894833
251	0x3da31e14	0.07964721
252	0x3dedfa92	0.11620058
253	0x39d1968b	0.0003997575
254	0xbd31818c	-0.043336436
255	0x3dd6f37e	0.10495661

fc.0.bias f4 [32]
0	0xbced9686	-0.02900244
1	0xbd7d6304	-0.061862007
2	0x3de4fee2	0.111814275
3	0xbd6ce2ce	-0.057833485
4	0xbdde7f4c	-0.10864124
5	0xbe094e6a	-0.13408819
6	0xbcfe9bd6	-0.031080168
7	0xbde75106	-0.11294751
8	0xbdc4dfd2	-0.09613003
9	0xbdef83fd	-0.11695097
10	0xbe065eb0	-0.13122058
11	0x3ddd7f4d	0.10815296
12	0xbd908e44	-0.07058385
13	0x3e138768	0.14407122
14	0x3cfb2012	0.03065494
15	0xbd8a4878	-0.067521036
16	0xbe016b13	-0.12638502
17	0x3de32475	0.11090938
18	0xbe0e55de	-0.13899943
19	0x3cf57ec4	0.029967673
20	0xbcc9270d	-0.024554754
21	0x3d87a5b5	0.06623403
22	0x3dc43807	0.09580999
23	0x3d92b02d	0.07162509
24	0x3ccfb738	0.02535592
25	0x3dd1b70e	0.10239993
26	0xbdc351e2	-0.09537102
27	0x3dbd4232	0.092411414
28	0x3db79616	0.089641735
29	0xbdb7266d	-0.08942876
30	0xbdd652cf	-0.10465013
31	0xbd5f5fb1	-0.054534618

fc.1.weight f4 [3, 32]
0	0xbd893483	-0.06699469
1	0xbd7da9eb	-0.061929625
2	0xbd3a2748	-0.045447618
3	0xbe0d3500	-0.13789749
4	0xbd969208	-0.07352072
5	0x3d995bf3	0.07488241
6	0x3da55151	0.080721505
7	0xbe2d6ee9	-0.1693684
8	0x3e00127a	0.12507048
9	0x3e03669b	0.1283211
10	0x3d6bc337	0.05755922
11	0x3c163ec5	0.009170239
12	0x3dff4b49	0.124655314
13	0x3dcfc254	0.10144487
14	0xbe264862	-0.1623855
15	0x3e5358e9	0.20639385
16	0x3e2e6b55	0.17033131
17	0xbd149570	-0.036275327
18	0xbd97e41a	-0.07416554
19	0x3c5b304b	0.013378213
20	0x3d494fc8	0.04914835
21	0xbdc73770	-0.09727371
22	0x3c6a8182	0.014313104
23	0x3e002100	0.12512589
24	0x3d7357c9	0.05940989
25	0xbd447aa5	-0.047968525
26	0x3d253ca1	0.040341023
27	0x3dee0c43	0.116234325
28	0xbd9c47fd	-0.07630918
29	0xbdc7916d	-0.09744535
30	0xbcdd61bb	-0.02702414
31	0x3de2c3c9	0.11072499
32	0x3dac4190	0.084109426
33	0x3e1a4cfe	0.15068433
34	0xbe33f6de	-0.17574641
35	0xbde4a1a5	-0.11163644
36	0x3e0c4bf3	0.13700847
37	0x3da992b2	0.08279933
38	0x3dc5e9ea	0.09663756
39	0xbe1f2faf	-0.15545534
40	0xbe351d19	-0.17686881
41	0xbcc1d8e8	-0.023663
42	0xbd939ab8	-0.07207245
43	0xbdf9d5b0	-0.12198961
44	0xbe0c16b3	-0.13680534
45	0xbd31dfca	-0.043426313
46	0x3d98bec3	0.0745826
47	0x3dee1e1f	0.11626839
48	0x3e207022	0.15667775
49	0xbc01fa2e	-0.007933183
50	0x3d85df04	0.065366775
51	0xbe7ef063	-0.24896388
52	0x3e0e5ea4	0.1390329
53	0x3d8b279b	0.067946635
54	0x3e0d16d4	0.1377824
55	0x3de78af1	0.11305798
56	0xbd284adc	-0.041087016
57	0x3d9e8f2e	0.07742153
58	0xbe2bac38	-0.16764915
59	0x3e60c2db	0.21949331
60	0xbc9ddfa7	-0.019271685
61	0x3c27f41a	0.010251069
62	0x3d0a7658	0.033804268
63	0xbd26a4d8	-0.04068455
64	0x3e221d7a	0.15831557
65	0x3e3ee9ec	0.18643922
66	0xbc74494d	-0.014910054
67	0xbdc8545d	-0.09781716
68	0xbb2afab6	-0.0026089377
69	0xbe0e66c5	-0.13906391
70	0x3e34520e	0.17609426
71	0x3d95de30	0.073177695
72	0x3dd3baba	0.1033835
73	0xbe23ae44	-0.15984446
74	0x3da65b5d	0.08122895
75	0xbc346814	-0.011011142
76	0x3e20ef98	0.15716398
77	0xbe25ca5e	-0.16190478
78	0xbd0ac3ec	-0.033878252
79	0x3de8e340	0.113714695
80	0x3e569747	0.20956145
81	0x3d3193d0	0.043353856
82	0xbd787f36	-0.060668193
83	0xbe39b8ff	-0.18136977
84	0x3d08561f	0.033285256
85	0xbca0a246	-0.019608628
86	0xbe182630	-0.14858317
87	0xbd1b011a	-0.037842847
88	0x3cbaa93e	0.02278578
89	0xbdcdc9a1	-0.10048223
90	0xbdf72e75	-0.12069408
91	0x3dbb831b	0.09155866
92	0x3dd9fbb3	0.10643711
93	0x3e26a2c6	0.1627303
94	0xbe2d5bf4	-0.16929609
95	0xbd891cab	-0.06694921

fc.1.bias f4 [3]
0	0x3e3e4175	0.18579657
1	0x3e18b641	0.14913274
2	0x3db50cd6	0.08840339
