Other Experiments/data_reuploading/NQE/nq:2_nd:10/NQE_it1_15.pt (torch, 9709 bytes, 6 tensors)

layer1.0.weight f4 [1, 1, 3, 3]
00000000: ba1a aabe fec3 01be 6035 df3d a0d2 42bd
00000010: 93ee 9a3e 56bf 09bc c0f0 493e 405a f03d
00000020: 04d0 a8be
-0.33223516 -0.12672421 0.10898852 -0.04756415 0.30260143 -0.008407434 0.19720745 0.11735964
-0.32971203

layer2.0.weight f4 [1, 1, 3, 3]
00000000: 004e 50bb 1ba5 adbd 76b5 313e 2037 81bd
00000010: dbd7 c23d 0b2f fc3d 3098 8f3e 0ed0 6ebe
00000020: a0ed aabd
-0.0031784773 -0.08478757 0.17354378 -0.063093424 0.095138274 0.1231366 0.28045797 -0.23321554
-0.083461046

fc.0.weight f4 [32, 49]
00000000: ea24 ad3d 6e4d d93d 3add cebd b229 033e
00000010: 4a18 583b b30c ba3d 2a9c 213d 3711 033d
00000020: 3ccf 053d c377 b83d 6eaf c13a 972c a43d
00000030: aee3 93bd d742 b93d 07a4 823d 2a3b 22bd
00000040: 9cf1 f83d dc9a ffba d7a1 adbd 132b c6bd
00000050: c1bb f43c 4a14 743c 8e83 6abd 4a1d 703c
00000060: e5d3 403d 9374 803a b756 1dbd 5371 c83d
00000070: b84f 723b 4e09 0f3e d375 a9bc fe75 cfbd
00000080: 5714 da3d 6eb4 28bd 3c0d 07be 5a3e ecbd
00000090: f383 e03d b379 4cbd fc18 203d 67b2 833d
000000a0: 334c 623d bd88 02be 35d7 b13d f349 eebd
000000b0: 3ec3 e0bd 73f0 b63d 5c02 563d 81ba b6bc
000000c0: 1c72 8a3c 3640 0bbe 6ab8 0cbd 3392 48bd
000000d0: 6a28 673d 8702 a23d 9746 503d 95e2 00be
000000e0: a533 7dbd 375a ce3d 151c d5bd 01c3 e83b
000000f0: ee03 793c 9379 85bc 4320 c5bd e510 f0bd
00000100: f305 8a3d 9382 dcbb eee2 3abc 40e8 913c
00000110: 13e6 c1bc 540d 0abe 289f 0dbe d513 b5bd
00000120: 4e66 0f3d 2372 d3bd 3c25 42bd 0826 ffbd
00000130: cdea 0a3e 8e1f 703d d646 0cbe 38bc e03c
00000140: 0534 07be 81d0 47bd ba76 923d 9e86 fdbd
00000150: 93e7 07bd c5df b43d 1cfa c93c f3a3 cabd
00000160: 0ada e6bc 2076 a9bd 976a a33d a366 10be
00000170: 4eb3 8cbd 55aa 8a3d e5ae afbd 65fb d03c
00000180: 38a1 0ebe 4ac9 8f3d 9195 ba3d ee09 ba3d
00000190: 1a73 ca3d 5327 d0bc cac8 e4bd 6145 50bd
000001a0: 13d6 88bd dc13 5cbd 25dd 81bb dc96 093b
000001b0: 3c19 94bd 4d80 073e 252f 493b 81bb f33d
000001c0: 939d 093c 67a0 a0bd 9a39 a8bd 376d a4bd
000001d0: ac8b fabd 0ad0 b83d 7898 debc 88b8 e9bd
000001e0: a556 253d 4a35 353d 0a99 18bd 00de 0c3e
000001f0: b5a3 adbd 2170 e8bd a084 253d 7168 e03d
00000200: a58c 7abd d77a 04be 9722 bc3d 25dc 1d3c
00000210: 6e81 6dbc 7ec6 c7bd 01f3 cfbb c829 f8bd
00000220: 37d8 c53d 13f0 003e 17c8 b9bd 845f 093e
00000230: 013f 3d3c 654e bebd 0191 d0bd a533 043c
00000240: ee9b 663d 77e9 9a3c 7e3f 983d 4318 fd3d
00000250: 4395 e83d ea4e 21bd 6e7f 5a3c 9cc2 ff3c
00000260: 9341 b63b f3b3 c83d 1eff f8bd caa8 3b3c
00000270: ebed 0fbe 0cad acbd 5ca0 0d3c 7ffa 07be
00000280: f87b ff3c 8e69 a5bd 5c43 3fbd 6527 0dbd
00000290: f3c8 a63d 259a 5ebc ecb1 a53d a72c 9b3d
000002a0: 2eb7 ad3d 9074 a2bd 0527 e8bd c551 183d
000002b0: 9702 1f3d aa3b e83d 4a0e 343c cccb e4bd
000002c0: c326 bd3d 61c2 4fbd a589 3d3d 78f8 62bd
000002d0: ca5e 4abc 63ce ca3d 333e 3a3d 95ea 943d
000002e0: cabf 83bc 0586 1abd a54e 63bc 4aea ea3a
000002f0: 341e 0ebe c0ac 07be 133d 813c 18d0 04be
00000300: 10f6 9dbd 638b 8fbd 6e88 2f3c 0012 99bc
00000310: f3b3 fb3d f59f dcbd a361 e13d 252d 78bc
00000320: 5545 c23d 7113 b43d 737e 633d ce9e 2f3d
00000330: 6e2f 563b f3cb c63d 2e4e f03d 735f 95bd
00000340: 78aa e63c 3eab aebd 4177 443d 2345 8d3d
00000350: 65f5 e63c 7c83 08be 2c23 0dbe 4cf1 efbd
00000360: 4e98 0b3e 5320 253d 7329 413d bc24 bfbd
00000370: 63bf b0bd 93b7 cc3d b3d2 743d a53e ca3c
00000380: 4ada f93a 7a1c 8e3d b721 02bb 4ed1 d7bd
00000390: 572f c9bd 27d5 82bd 3e56 813d 6e85 ebbd
000003a0: 2ef4 b4bc 6e3b 2c39 01bf e43c bd15 003e
000003b0: 9309 b93c 4a93 e7bb cc20 ccbd a337 c6bd
000003c0: 4618 103e 5c26 cdbc b358 04bd 83e6 8f3d
000003d0: 33f4 c2bd 7c54 473d 25a3 44bb d3cc c4bc
000003e0: 45c8 b4bd c59d 833d 25d3 a3bc 05d7 343d
000003f0: 33eb 01be ea6d c5bd aa5c 873d b0af 803d
0.084543064 0.10610472 -0.10100789 0.12808874 0.0032973462 0.090844534 0.03945557 0.03199884
0.032668337 0.09007218 0.0014777014 0.08016317 -0.07221161 0.09045952 0.06378942 -0.039607204
0.12155458 -0.0019501108 -0.08478134 -0.096761845 0.029874684 0.014897415 -0.057254367 0.014655421
0.04707708 0.0009800367 -0.038412776 0.0978724 0.0036973786 0.13968393 -0.020686066 -0.10129927
0.10648411 -0.041187696 -0.13188642 -0.1153533 0.10962667 -0.04992075 0.039086327 0.06430512
0.05524845 -0.12747474 0.086836256 -0.116351984 -0.109747395 0.08932581 0.052248344 -0.022305729
0.016900115 -0.13598713 -0.03435556 -0.04896755 0.056435026 0.07910638 0.05084857 -0.12586434
-0.06181683 0.10075801 -0.10405747 0.0071033244 0.015198691 -0.016293323 -0.09625294 -0.117219724
0.06739416 -0.006729433 -0.011406643 0.01781094 -0.023669278 -0.13481647 -0.13830245 -0.08841673
0.035009675 -0.10324504 -0.04739879 -0.12458426 0.13566132 0.058623843 -0.13698897 0.0274335
-0.13203438 -0.04878283 0.071515515 -0.12379192 -0.03317983 0.08831743 0.024655394 -0.09894552
-0.028180141 -0.08274484 0.07979315 -0.14101653 -0.06870137 0.067707695 -0.0857828 0.0255105
-0.13928688 0.07020815 0.09110559 0.09083925 0.09885235 -0.025409376 -0.1117111 -0.050847415
-0.066814564 -0.053729877 -0.00396313 0.002099446 -0.072313756 0.13232537 0.0030698266 0.11900998
0.008399385 -0.07843094 -0.082141116 -0.080286436 -0.122336715 0.09024055 -0.027172312 -0.1141215
0.040365834 0.044240274 -0.037255324 0.13756561 -0.0847849 -0.11349512 0.040409684 0.109574206
-0.061169285 -0.12937485 0.09186285 0.009635006 -0.0144961905 -0.09754656 -0.006346107 -0.12117344
0.0966038 0.12591581 -0.09071367 0.13415343 0.011550666 -0.09292296 -0.10183907 0.008068954
0.05630105 0.018910153 0.07433985 0.12358143 0.113565944 -0.0393819 0.013336046 0.031220727
0.0055620163 0.097999476 -0.12158035 0.011453817 -0.14055602 -0.084314436 0.00864419 -0.1327915
0.031187043 -0.080767736 -0.0466951 -0.034461398 0.08143797 -0.013586556 0.080905765 0.07576876
0.084822044 -0.07932389 -0.113355674 0.037187357 0.03882083 0.11339505 0.010989735 -0.11171684
0.09235909 -0.050722484 0.046273846 -0.05541274 -0.012351701 0.099026464 0.045469474 0.072713055
-0.016082663 -0.037725467 -0.013873731 0.0017922607 -0.13878709 -0.13249493 0.015776193 -0.12970006
-0.07712948 -0.07009008 0.01071368 -0.01868534 0.12290182 -0.10772697 0.11004951 -0.015147482
0.0948588 0.08792771 0.055540513 0.042876057 0.003268208 0.09706869 0.117336616 -0.07293596
0.028157458 -0.085287556 0.047965292 0.068979524 0.028193185 -0.13331407 -0.13782948 -0.117159456
0.13632318 0.04031403 0.04715867 -0.093331784 -0.08630254 0.099959515 0.05977125 0.024688074
0.0019062248 0.06939025 -0.0019856521 -0.105379686 -0.098234825 -0.06388312 0.063152775 -0.11500059
-0.02208909 0.00016425338 0.027923109 0.12508292 0.022587573 -0.007067119 -0.09967193 -0.096785806
0.1407176 -0.025042705 -0.032311153 0.070263885 -0.095192336 0.048664555 -0.0030004468 -0.024023449
-0.08827261 0.064265765 -0.019998142 0.04415037 -0.12687378 -0.09640105 0.06609471 0.0628351

fc.0.bias f4 [32]
00000000: 9e5d f8bd 3c05 abbd 5a5b 0b3e eae3 79bd
00000010: 3194 c03d 2e9d 843d 117b 3cbb b739 9f3c
00000020: ae43 933c 436f 88bd 6c15 493c 43e7 f73d
00000030: 1cc8 fdbc 537c 4dbd 7315 863b 7ac0 e63d
00000040: 9abe 0abd b375 053d 0542 3cbd 8695 453a
00000050: 056d 4f3d b568 cdbd 0cd3 fc3d ee0c 55bd
00000060: ce72 b6bd 319d e2bd c1f0 c2bd 07c8 d1bd
00000070: 9caa 053d d80e 873c 2ad5 10be eec7 cabd
-0.12127231 -0.08350608 0.13609067 -0.06100837 0.09403265 0.06475292 -0.0028759877 0.0194367
0.017976608 -0.066618465 0.012273174 0.121046565 -0.030979209 -0.050167393 0.0040919124 0.11267181
-0.033873178 0.03258295 -0.0459614 0.00075372343 0.05064108 -0.10029737 0.123449415 -0.052014284
-0.08908616 -0.11065138 -0.095185764 -0.1024323 0.03263341 0.01648657 -0.14143816 -0.09901415

fc.1.weight f4 [3, 32]
00000000: a2b1 74bc 367b 00be ddad 5abd be13 323e
00000010: 4318 07be 9ea8 b23d 0899 333e 644d 403c
00000020: 903f e5bc ea20 283e 8751 bdbd 9a0c 13be
00000030: 91b3 0ebd 4eea 16be c85e 733d aeb1 133e
00000040: a5d9 313e 2d4f 56bc b008 bf3d a3be 9bbd
00000050: cd8e 0cbc e2a5 b7bd 747e bdbd 9a38 893d
00000060: b1d0 033e 6701 e33d aa1e 86bd 612c 6b3c
00000070: fdad 103c 493c 08be 2c63 8fbd 6075 8dbc
00000080: 03d8 61bd 8e1f 5fbd 6cce f63d 0dab 07bc
00000090: fd27 dc3d 26e3 4c3c e97a 01bd cc66 4a3d
000000a0: 88bd d6bd d209 ca3d ae4e bd3d fb02 193e
000000b0: 8fff 203e a70d 12be 8649 22be 0838 8cbd
000000c0: ea4f b93d 7516 f53d c2b4 debd b1a4 ebbd
000000d0: f54e dab9 9833 a73d 35c5 003d 9d56 06be
000000e0: fd2e 1c3e af89 90bd 54a8 d23d 4748 fd3c
000000f0: 7fd9 e03b ab53 09be d6f6 61bd 420e 49bd
00000100: c0e7 1abe 5ddf 4d3d 78d7 00be 5618 afbd
00000110: edde 9cbd 53d0 073e 7069 bb3d 1a15 b7bd
00000120: 42ad 1fbe c659 02be 4337 fd3c 1926 ed3d
00000130: 3a72 0dbe f3b4 0ebe 17ef 423d c74f a73d
00000140: c0d9 edbd 00af 583d c842 21be cdb3 9a3d
00000150: 52df 063e d317 063c 2c8f 993d 346e b0bd
00000160: 50cf 423d f47c 433c e40c afbd 9cd9 d73d
00000170: 8dae 3cbd f1ac c23d 2761 82bd 613e 1f3e
-0.014934929 -0.12547001 -0.053388465 0.17390344 -0.13192849 0.087235674 0.17538846 0.011737201
-0.02798441 0.16418806 -0.09244066 -0.14360276 -0.034839217 -0.14737818 0.059416562 0.14423248
0.17368181 -0.0130804 0.09327829 -0.076047204 -0.008578968 -0.089671865 -0.09252635 0.06700249
0.12872578 0.11084252 -0.065488175 0.0143538425 0.008830545 -0.13304247 -0.070013374 -0.017267883
-0.055137645 -0.054473452 0.120510906 -0.008280528 0.10749815 0.012505328 -0.031611357 0.04941444
-0.10485369 0.09865154 0.092435226 0.14942543 0.15722488 -0.1426302 -0.1584836 -0.068466246
0.090484455 0.11967174 -0.108743206 -0.11506022 -0.00041639028 0.081641376 0.03143807 -0.13118978
0.152523 -0.07057511 0.10286012 0.030918254 0.006861865 -0.13410823 -0.05516704 -0.049085863
-0.15127468 0.050261844 -0.12582195 -0.085495636 -0.07659707 0.13263063 0.0915097 -0.08939572
-0.15593436 -0.12729558 0.03091014 0.11579532 -0.13813105 -0.13936214 0.047591295 0.08169513
-0.11613798 0.052901268 -0.15748131 0.075538255 0.13171127 0.008184391 0.07498011 -0.086147696
0.04756099 0.011931647 -0.085473806 0.105395526 -0.046064902 0.09505642 -0.063661866 0.1555114

fc.1.bias f4 [3]
00000000: 0921 06be 624e 7f3d 65c4 2abe
-0.1309854 0.06233061 -0.16676481
