Other Experiments/data_reuploading/NQE/nq:2_nd:10/PCA-NQE_it2_37.pt (torch, 2703 bytes, 6 tensors)

linear_relu_stack2.0.weight f4 [6, 2]
0	0x3dd8058f	0.10547935
1	0xbd6b931c	-0.05751334
2	0x3e214f6a	0.1575295
3	0x3dcaaf79	0.0989675
4	0xbf39af99	-0.72533566
5	0x3eb9e233	0.3630539
6	0x3effd2f2	0.49965626
7	0x3d624fcb	0.055251878
8	0xbf073af9	-0.5282436
9	0x3e2bc70a	0.16775146
10	0x3d9d0e75	0.07668773
11	0xbe4da60e	-0.20082876

linear_relu_stack2.0.bias f4 [6]
0	0x3f03c771	0.514762
1	0xbf0a828d	-0.54105455
2	0x3ec9711b	0.39344105
3	0x3e84b724	0.25920975
4	0x3ec6c1fb	0.3881987
5	0xbf06a215	-0.5259107

linear_relu_stack2.2.weight f4 [6, 6]
0	0xbd3a7dd2	-0.045530148
1	0x3eafd729	0.34343842
2	0x3ecea5b9	0.4036081
3	0xbeb7165b	-0.35759243
4	0x3e0a09cf	0.13480304
5	0xbea4942f	-0.32144305
6	0xbe159eb5	-0.14611323
7	0x3e235381	0.15949823
8	0xbe075a23	-0.13217978
9	0xbe898ea7	-0.26866648
10	0xbcb54814	-0.022129096
11	0xbd97af20	-0.07406449
12	0xbe243b7c	-0.16038316
13	0x3eb24efd	0.34825888
14	0x3eb28c34	0.34872591
15	0x3e604c9a	0.21904221
16	0x3ebb3ca4	0.36569703
17	0x3e839a32	0.2570358
18	0x3da53285	0.080662765
19	0xbda196b8	-0.078900754
20	0x3e8828ab	0.26593527
21	0xbe67f010	-0.2265017
22	0xbbbc8515	-0.0057531693
23	0xbe5f84ed	-0.21828051
24	0x3ec5d060	0.3863554
25	0xbe862951	-0.26203397
26	0xbe4ab814	-0.19796783
27	0xbdf56285	-0.11981682
28	0x3e61a821	0.22036792
29	0xbeaea263	-0.34108266
30	0x3e2e42ea	0.17017713
31	0x3e42d611	0.19026972
32	0xbea25c74	-0.3171116
33	0x3e3d11f5	0.18463881
34	0xbcbb7387	-0.022882236
35	0x3e0511d9	0.1299509

linear_relu_stack2.2.bias f4 [6]
0	0x3e137c41	0.14402868
1	0x3e2dd2e3	0.16974978
2	0x3e9a59c3	0.30146608
3	0x3e3a33e4	0.18183857
4	0xbe8b19e8	-0.27168202
5	0xbeb20473	-0.3476902

linear_relu_stack2.4.weight f4 [3, 6]
0	0xbe92e610	-0.2869115
1	0xbe374811	-0.17898585
2	0xbe5823d3	-0.21107416
3	0xbe64bf0f	-0.22338508
4	0x3e4caf69	0.19988789
5	0xbe9165a2	-0.28397852
6	0x3e59a5a2	0.2125459
7	0xbe11dfbb	-0.14245503
8	0xbe9e085f	-0.30865762
9	0xbecf3ac5	-0.40474525
10	0x3e11e3a7	0.14246999
11	0x3c996131	0.018723102
12	0x3defd16c	0.11709866
13	0xbe8f522b	-0.27992377
14	0x3ec50d21	0.3848658
15	0x3c7b22a0	0.015328079
16	0x3e70851f	0.23488282
17	0xbe34a292	-0.1764014

linear_relu_stack2.4.bias f4 [3]
0	0xbe14eb55	-0.14542897
1	0x3d319e47	0.043363836
2	0x3edea7f6	0.4348752
