Other Experiments/data_reuploading/NQE/nq:4_nd:10/NQE_it0_10.pt (torch, 10349 bytes, 6 tensors)

layer1.0.weight f4 [1, 1, 3, 3]
00000000: 8992 10be 55de 8ebe 4545 cb3c b41c 8bbc
00000010: fa79 20be 727e de3e cdcf 6bbe 26da 44bd
00000020: c239 a43e
-0.14118399 -0.27904 0.024813304 -0.01698146 -0.1567153 0.43455845 -0.23028488 -0.048059605
0.32075316

layer2.0.weight f4 [1, 1, 3, 3]
00000000: ad1a 083e 0fa2 cd3e 8041 c3bd 4834 363e
00000010: b15f c23e 6f2c 59be 5c1f d43e 9db6 063d
00000020: fe3d 263e
0.13291426 0.40162703 -0.095339775 0.17793381 0.37963632 -0.21208356 0.41430175 0.032888997
0.16234586

fc.0.weight f4 [32, 49]
00000000: 7966 9cbd dedd 89bd 5970 113e 5f20 95ba
00000010: 43ac d13d aab7 5c3d d1fc a9bd 5da6 55bd
00000020: 2563 cbbd b763 e0bd d7d1 f9bd 0844 c8bb
00000030: 5489 0ebe 936c 2ebd 995b f83d d67b cabd
00000040: b55b 45bd bbe6 a63d fd55 ddbd 6e30 b3bb
00000050: a9e3 68bd 9994 a0bd 8361 7abc 91d9 05be
00000060: fbb4 0b3e 09e1 0cbd 4057 b1bd 24d6 b5bd
00000070: 9bc3 0cbe 2391 a8bc e05b 9b3d 274f f23c
00000080: 88cf f2bb d46a ad3d 9e07 d5bc b6d4 74bd
00000090: e10d 72bc b5e1 e33d d9bf bd3d 6d1f 0a3d
000000a0: 8cbc 9bbc 1aa0 fdbd 1d7c b33d c0f0 a2bd
000000b0: 2af0 90bd 6c7e 56bd 2dac 433d ae54 e7bc
000000c0: 50d2 8f3d 0c80 963d 3557 113e 1346 fbbb
000000d0: c8c4 e83c 50eb 9c3d d077 33bd 7792 023e
000000e0: bf40 703d 3eef 20bd ffea 8f3c d82b 39bd
000000f0: db38 75bd 8d0e 1a3d 0b68 6bbc da51 293c
00000100: 0bcc 033e 79a2 fa3d 6fd4 923d 2515 8ebc
00000110: dfe9 33bd 500d cfbd 5e95 a5bd 7752 b4bd
00000120: 0e6b 4cbd de0a 233d 6f1c 9dbc c93b b33b
00000130: 2b90 3fbc 20cb e8bd 91b3 11bd bd4d 8cbd
00000140: c2dd f93d 09c6 10bd 24c3 f63d a7c6 77bd
00000150: 8afc 763d 6eea 53bc 5a06 97bd 3fab ba3d
00000160: 51f8 2b3d e986 0dbe 1602 bf3d f876 0c3e
00000170: f09c 9ebd 49ec b9bd b6d6 3e3d 417d 3ebd
00000180: a3ae 393d 3c22 e53d 08c0 0ebe 492d 9cbd
00000190: a92b a03d 8fbe fabd 6aac d13d 5a2d dfbd
000001a0: d6b4 353d 2a1a 2e3d 1da5 80bc 3eb2 a1bc
000001b0: 95c3 ad3d d69b 88bd b7db a63d fbf4 a9bd
000001c0: ee60 b33d 92fc 0c3d 31ec b1bc e15a 94bc
000001d0: 801d f6bc 7b7d a23d 62c4 d33d 864a eabc
000001e0: 505b 4bbd 9b2e f43d 039e 563c 3322 84bd
000001f0: 6284 c43c e6b7 80bd f7db 7abd 0df0 863d
00000200: 2c5c aabb bf1a 033d 3a50 92bd 321f 07bd
00000210: 845d 0e3e 29fc b23d d24b cb3b 50e1 1c3c
00000220: 5389 833c 43d0 0abd 20a5 2a3c af0c 35bc
00000230: 59c1 5ebd c671 4e3d 0100 d13d 4cd9 8e3d
00000240: e2c2 8abd 0ed0 d4bd 3e2a cdbd 7ba7 be3d
00000250: 36b0 d83d ce15 fbbd a224 c1bd b140 93bd
00000260: 310c 8f3b fac1 a4bd 574a 9bbd a880 b8bd
00000270: e7fa 57bd fcab 9f3c 678a 53bd f17e 303d
00000280: 2fd1 e4bd 6085 fc3d 9335 0b3e 3a06 b6bd
00000290: 259c 083e 2a67 383d 433d c5bd 8123 1b3d
000002a0: f610 87bd 0172 d93d 7c88 b1bd 78d0 4cbd
000002b0: ad32 fbbd 9e87 cabd 7002 053d 24fd b3bd
000002c0: 8892 ba3c 0da9 7d3d ca8f 9b3d c819 ecbd
000002d0: 6d1d 0fbd 66f2 28bd 240d 7a3d 1533 ee3d
000002e0: db62 01bb 7a47 06be ad50 0b3c c971 72bb
000002f0: 5b9c b73d 0589 ddbd d237 ddbd cf08 9dbd
00000300: c0fd 86bc aa5f 34bd dbce 08bd a80e 0c3b
00000310: 54e4 d33d 2469 423d dcb5 06be 7415 2a3d
00000320: 33fd 823d 0b06 d23c bbdc 9f3d a4ea e33c
00000330: 1156 68bd 4792 63bd 5eab 7d3c 5ae0 e0bd
00000340: eb1d db3d ac39 11bc 41d7 95bd 1916 933c
00000350: 2177 5b3d ea44 053e 3878 0fbe c17a f6bd
00000360: ceb2 a3bd 1a33 303d 0579 d6bd e20c 86bb
00000370: c8cb 8dbb 947c cabd 1c0b 99bd c65e 99bc
00000380: 0097 a23d a0d0 8dbc 5e36 893d f231 cf3d
00000390: ae9f 673c 4b81 043d 2010 f9bd 3d09 24bd
000003a0: b7d5 a2bd b4c9 6c3c 26e7 96bd 7a30 c93c
000003b0: 84b5 c63d 66cf 57bd 52d0 b3bd 5e24 d1bd
000003c0: 868f d6bd 04a2 063e 8329 203d 184a 21bd
000003d0: 30a5 eabd f7fb f33d 0395 7dbd 2fb5 72bc
000003e0: 177d 28bd 7c2e ad3d 86d9 963c 4bcf 70bd
000003f0: 54a7 8e3d a1cd 3dbd 2c1e c1bd 5565 04bd
-0.076367326 -0.06731771 0.14203013 -0.0011377445 0.102379344 0.053886093 -0.08300174 -0.05216061
-0.0993102 -0.10956519 -0.12198227 -0.0061116256 -0.13919574 -0.042584013 0.12126846 -0.09886901
-0.04818316 0.08149477 -0.108074166 -0.0054684198 -0.05685774 -0.07840843 -0.015282038 -0.13071276
0.13643257 -0.034394298 -0.0865922 -0.08878735 -0.13746493 -0.02057702 0.07585883 0.029578758
-0.0074099936 0.084676415 -0.026004609 -0.05977317 -0.014773817 0.111270346 0.09265108 0.033721376
-0.019010805 -0.123840526 0.08763907 -0.07956076 -0.07077058 -0.05236666 0.04777162 -0.02823862
0.07022536 0.07348642 0.14193423 -0.0076682656 0.028414145 0.0766207 -0.043815434 0.12751184
0.058655497 -0.03929066 0.01756811 -0.04520783 -0.059868675 0.037611533 -0.0143680675 0.010334456
0.12870805 0.122380204 0.07169425 -0.017344067 -0.04392421 -0.10109961 -0.0808513 -0.088047914
-0.049906783 0.039805286 -0.019178597 0.0054697734 -0.011692087 -0.11366868 -0.03557164 -0.06850765
0.122005 -0.03534511 0.12048939 -0.060492184 0.060299434 -0.01293431 -0.07374258 0.09114694
0.04198486 -0.13820995 0.0932657 0.13717258 -0.07744777 -0.09078271 0.046591483 -0.04650617
0.045332562 0.1118817 -0.13940442 -0.07625825 0.078208275 -0.122433774 0.102379635 -0.10897322
0.04436191 0.04250542 -0.015703732 -0.019738313 0.0848457 -0.06670348 0.08147376 -0.082986794
0.08758722 0.034420557 -0.02171907 -0.01810974 -0.030043364 0.0793409 0.103401914 -0.028599989
-0.04964763 0.11922952 0.013099196 -0.064518355 0.023988906 -0.06285076 -0.06124493 0.06588755
-0.005198976 0.03200793 -0.07144208 -0.032988735 0.13902861 0.08739502 0.006204107 0.009575203
0.016056692 -0.03389002 0.010415345 -0.011050387 -0.05438361 0.05040147 0.10205079 0.0697504
-0.06775452 -0.10391246 -0.10017823 0.09309288 0.105804846 -0.12260018 -0.09430815 -0.07190073
0.004365467 -0.080448106 -0.075825386 -0.09008914 -0.052729513 0.019491188 -0.051645663 0.04308981
-0.11172711 0.12330127 0.13594656 -0.088879064 0.13340814 0.04502026 -0.09630825 0.037875656
-0.06595032 0.10617448 -0.086686105 -0.0500035 -0.12265525 -0.09889148 0.032473028 -0.08788517
0.02277495 0.061928798 0.07595785 -0.11528355 -0.034940172 -0.041246794 0.061047688 0.11630837
-0.001974276 -0.13113204 0.008503121 -0.003699409 0.08965369 -0.1081715 -0.108016625 -0.07667696
-0.01647842 -0.044036545 -0.033400398 0.002137104 0.103462845 0.04746355 -0.13155311 0.041524366
0.0639595 0.025637647 0.07805773 0.027821846 -0.056722704 -0.055559423 0.015482752 -0.10980292
0.10699066 -0.008863848 -0.07316447 0.017954873 0.053580407 0.1301457 -0.14010704 -0.12035132
-0.07993089 0.043017484 -0.104723014 -0.004090891 -0.004327271 -0.09887043 -0.07472822 -0.01872195
0.07938957 -0.017311394 0.06699823 0.10116948 0.014137192 0.032349866 -0.12161279 -0.040047873
-0.07950919 0.014452387 -0.07368307 0.024559248 0.0970259 -0.052688025 -0.08779968 -0.102120146
-0.10476594 0.13147742 0.03910209 -0.039377302 -0.11457288 0.11913293 -0.061909687 -0.014813705
-0.04113492 0.08456132 0.01841427 -0.05879144 0.06965509 -0.04633868 -0.09429583 -0.0323232

fc.0.bias f4 [32]
00000000: 8a2a f3bc 2718 433c 54b4 ffbc 7f84 493c
00000010: 3d0c 0fbc 0062 cc3d 3a88 ddbd 7064 573d
00000020: 08d9 0e3d 7673 56bd b9fc 0c3e c5bb f93d
00000030: 76f1 743b 73e1 b4bd df56 1d3c 4e64 0fbe
00000040: 6148 df3d b166 393c 9c5a 9d3d 6268 f0bd
00000050: b7c5 adbd dcc2 d5bd 2f8b 813d 9199 4cbd
00000060: 8759 9cbd bac8 cdbd 916c 8dbd d3aa b3bd
00000070: d364 1e3d 4906 043d 29c8 cb3d 55ad dd3d
-0.02968337 0.011907614 -0.031213917 0.012299656 -0.008730945 0.099796295 -0.10816999 0.05258602
0.034874946 -0.052356206 0.13768281 0.12194017 0.0037375367 -0.088320635 0.009603231 -0.14003107
0.10902477 0.011315987 0.07683298 -0.117386594 -0.08484977 -0.10437557 0.06325375 -0.04995114
-0.076342635 -0.10048051 -0.06905473 -0.087728165 0.038670372 0.032232556 0.09950287 0.10824076

fc.1.weight f4 [8, 32]
00000000: 52c4 3ebe 201a ebbc d187 0cbd 28f6 763d
00000010: 4c32 83bd 69aa 813d ea3d 0ebd 3df5 23be
00000020: 94a8 5d3d 3684 8a3c e4cd b63d 179f 183d
00000030: 9106 e53d 6a45 92bd 5a75 6c3d d91a 19be
00000040: 7bcb ebbd 98a8 f2bd ecd8 0dbd 4ad8 6fbd
00000050: 8cbc 223d a375 1dbe c3e5 08bd 5f0f 1f3d
00000060: 1eca 11be ab4d 2b3d e858 c9bd 216c d83c
00000070: 7c0e 1f3e accc 043e 8e96 b1bd e6fe 11be
00000080: db81 d13c 2abf 28be 5896 d03d 3488 39bd
00000090: c489 bf3d 9ef6 203e 5e4d d23d d92f 763d
000000a0: aca6 f43d 91d9 c73a 8651 0dbe 35e5 25be
000000b0: 5e56 e43c 3c15 c13d de06 1c3e afca f9bd
000000c0: 670a fcbd eda0 373e d367 873d 14be a6bd
000000d0: e3d1 89bd 2370 1dbd e738 bdbd b06e 053e
000000e0: 896b 0e3e dc3e c9bc 1dd2 ca3d 181f cfbd
000000f0: d802 213d 3e19 203e 0e30 523d afaa 2dbe
00000100: 3926 d8bc 6a1c 97bd 5b1a 5abd 8204 223e
00000110: d91d 313e 0b1a 093e 6695 973d 4b20 debd
00000120: df72 c3bc 7142 f83d cbe5 20be be1b 0dbc
00000130: f305 103e 3ba6 b33d c870 9abd b10d 0b3e
00000140: fba6 f8bd beca 223e ba04 953d b882 153c
00000150: 26ec a13d 7f68 27be 0a82 1b3d da78 35bc
00000160: 052b 1d3d 3326 df3d 1874 bf3d 61c7 343d
00000170: 6211 81bc 9974 223e cc17 92bd a703 8abc
00000180: 81aa eabb 77aa 043e 23da 62bd 9bfa a9bd
00000190: b40a 3fbd 1997 7bbd 52e7 fdbd c7ff f8bc
000001a0: 6397 203e 1745 053c 4aa2 063e 3cb8 b4bd
000001b0: 1ba1 5cbd 182f c2bd efe8 a6bd 26e0 12be
000001c0: 90a4 9f3d 0c78 133e bc56 13be 1c3c b13d
000001d0: c80d ef3d ec1e f03d 0cf1 263e 0a37 2a3e
000001e0: d9a6 be3d bcae 80bd cc8d 89bd d337 d83d
000001f0: bbdd 09be ed8f 343e a8f0 a4bd 0dbb d8bd
00000200: 9818 34be 80f2 d23b 5821 703d e35c 65bd
00000210: 8038 433d 3272 1f3e 39fa 28be 71cb d0bd
00000220: 7fe2 223c 9edf 563d 1ce7 f83b c7ae d33c
00000230: 843e 31be 9d7c f8bc 245b 653d 9e1d b2bb
00000240: 2949 17be 0305 1bbc 50dd 12be bb17 0bbc
00000250: 2aad b53d 2b0a 6abd 6dcd 24be 562d e03d
00000260: 21e5 373b 2572 e53c 6b42 f3bd da0c d6bd
00000270: 833e 22bd 8c34 293b 435e cd3d d552 66bd
00000280: fc3e f0bd e38b 133c f4b7 b63c e4a0 c6bd
00000290: 1def 71bd 5a70 49bd 6265 46bc f37b 8e3d
000002a0: d4d4 a5bc a268 a4bd 0844 2d3d cb59 143c
000002b0: 2ae9 353d 7455 fbbd d00e edbd d2c5 46bd
000002c0: d646 0ebe 97a9 d03b c852 373e 6962 e83d
000002d0: 1507 f63d 204d 2ebe a4ef 1dbe 0f2f 253d
000002e0: 7166 f0bd 22be 72be 14f9 5bbd a734 ff3d
000002f0: 9dba 25be d6c2 213e 7237 3c3e c1d7 26be
00000300: be19 a1bb d13f 12bd bd9b b0bd d006 1e3e
00000310: b1a5 adbd 7aa5 b8bd bb43 223c 98c9 593d
00000320: de15 b83d 9b92 aebd c744 d43b 8734 903b
00000330: c588 10be 9f51 1cbd 1cd8 023e d890 cfbd
00000340: 988b aebc a95f b3bd b0de c53d 654f be3d
00000350: 1f83 39bd 8c73 f53c 7ba8 77bc 65d8 0c3e
00000360: 29af 29be 7949 edbc 53f3 b73d 455a 8e3a
00000370: e8f5 d3bd 9e52 ba3d 5a9e 9b3d e74f 31be
00000380: 177f f6bd 1140 1e3e 8b26 18be 7323 0d3e
00000390: 996f 90bd d5d6 653d e61b 393d ad60 20be
000003a0: d01f 4c3d 68b7 263e ac7e 293e 2259 7cbd
000003b0: dc9b 24be 9094 31bd edd6 1bbe bb5d 13bd
000003c0: 0ec2 8bbd 29b2 ea3c f3c4 e6bd c45b c93d
000003d0: ac2e cd3c 3c8b fdbd 2600 e2bd 30ad 0a3e
000003e0: 6173 8ebd 926c 03bd 6a30 0cbe 909e 61bd
000003f0: 3dac 0fbe 69df 4f3d e344 01be bee4 27be
-0.18629578 -0.02869898 -0.034309212 0.060293347 -0.06406078 0.06331331 -0.034727015 -0.1601152
0.054115847 0.016908746 0.08925989 0.037261095 0.11182893 -0.07142146 0.057729103 -0.14951648
-0.1151342 -0.11848563 -0.0346307 -0.05855588 0.039730594 -0.15376906 -0.033422243 0.03883302
-0.14237258 0.041822117 -0.09831411 0.026418747 0.15532869 0.12968701 -0.08671294 -0.14257392
0.025574615 -0.16479173 0.10184926 -0.04529591 0.093524486 0.15719077 0.10268663 0.060104225
0.11945853 0.0015247335 -0.1380063 -0.16200717 0.027873214 0.09427878 0.15236995 -0.12196862
-0.123066716 0.17932482 0.066116 -0.08141723 -0.06729486 -0.03843702 -0.09239369 0.13030505
0.13908209 -0.024566106 0.09903357 -0.101133525 0.039309353 0.15634629 0.05131536 -0.16959642
-0.026385413 -0.073784664 -0.05324779 0.15822032 0.17296542 0.13388841 0.07401542 -0.10846003
-0.023858486 0.12122048 -0.15712659 -0.008612571 0.1406477 0.0877194 -0.075410426 0.13579442
-0.12141224 0.15897653 0.07276292 0.009125404 0.0790637 -0.16348456 0.03796581 -0.011076177
0.038371105 0.10895958 0.09348315 0.044135455 -0.01575536 0.15864791 -0.07133445 -0.016847445
-0.007161439 0.12955652 -0.055383813 -0.08299752 -0.046641067 -0.061423395 -0.123976365 -0.030395402
0.1568275 0.008134148 0.13147846 -0.088242024 -0.05386458 -0.09481639 -0.08149897 -0.14343318
0.0779506 0.14401263 -0.14388555 0.08654043 0.116725504 0.11724648 0.1630289 0.16622558
0.093091674 -0.06283328 -0.06716499 0.105575226 -0.1346349 0.17633028 -0.08053714 -0.10582552
-0.17587507 0.0064375997 0.05862555 -0.055996787 0.047661304 0.15570906 -0.16501702 -0.10195053
0.009941696 0.05245935 0.0075959098 0.025840176 -0.17309004 -0.030332858 0.05599512 -0.0054356596
-0.14774002 -0.009461644 -0.14342237 -0.0084895445 0.08870919 -0.057138603 -0.16093989 0.10946147
0.0028060155 0.02800853 -0.118779026 -0.1045167 -0.039610397 0.0025818674 0.100277446 -0.05623134
-0.11730763 0.00900552 0.022304513 -0.09698656 -0.059065927 -0.049179412 -0.0121091325 0.06957235
-0.020243086 -0.080277696 0.042301208 0.009054611 0.044411816 -0.12272158 -0.11575091 -0.0485285
-0.1389421 0.006367873 0.17902672 0.11346895 0.120130695 -0.17021608 -0.15423447 0.04032808
-0.11738289 -0.23705342 -0.053704336 0.124612145 -0.16184469 0.1579698 0.18380526 -0.16293241
-0.004916399 -0.03570539 -0.08623455 0.15432286 -0.08478869 -0.09015937 0.0099038435 0.05317077
0.08988546 -0.085240565 0.0064779255 0.004400793 -0.14114673 -0.038163777 0.12777752 -0.10135049
-0.021306798 -0.0875848 0.09661615 0.09292487 -0.045291062 0.029962324 -0.0151158525 0.13754423
-0.16570725 -0.028965699 0.08981957 0.0010860643 -0.10349637 0.09097789 0.075985625 -0.17315637
-0.12035959 0.15454127 -0.14858453 0.13783054 -0.070525356 0.056113083 0.04519262 -0.15661879
0.049835026 0.16280901 0.16552228 -0.06160844 -0.1607508 -0.04335457 -0.15218706 -0.03597806
-0.06824122 0.028649407 -0.11268034 0.09831956 0.025046669 -0.123800725 -0.110351846 0.13542628
-0.069556005 -0.032085963 -0.13690343 -0.055082858 -0.14030547 0.05075017 -0.12623934 -0.16395852

fc.1.bias f4 [8]
00000000: b128 2c3e 4490 f0bc eaf0 e8bc 757a 13be
00000010: 7fa8 5a3d f5ac ee3d f840 243d e016 12be
0.16812398 -0.029365666 -0.02843519 -0.14402182 0.053383347 0.11654083 0.04010102 -0.14266539
