Other Experiments/data_reuploading/NQE/nq:4_nd:10/NQE_it1_23.pt (torch, 10349 bytes, 6 tensors)

layer1.0.weight f4 [1, 1, 3, 3]
00000000: e3b3 9d3e cf54 ad3e 4225 73bc 5366 e8bd
00000010: 4713 bf3e 6ac4 51be 071e 0e3e 8ec4 4a3e
00000020: 395d 8dbe
0.30801305 0.33853766 -0.014840426 -0.11347642 0.37319395 -0.20485082 0.13878642 0.19801542
-0.27610186

layer2.0.weight f4 [1, 1, 3, 3]
00000000: d0b4 9d3d d688 ba3e e7a0 0e3e e583 4b3e
00000010: 3a9b 643e 40f8 493e cebd d0bd 1150 c1bc
00000020: 459a 8cbd
0.07700503 0.36432523 0.13928567 0.19874533 0.22324839 0.19723606 -0.10192452 -0.023597749
-0.06865362

fc.0.weight f4 [32, 49]
00000000: abe2 a1bd 6ae1 d63d e71b c1bd 88bb a6bd
00000010: d271 08bd b234 e0bd 2dcb e13d a5f4 b3bd
00000020: 2b90 0a3e c9a6 a33d 51cf 1d3c f922 933d
00000030: 7ffc bfbd 9f96 033e 90fe eabd d812 45bd
00000040: 97be ac3c 9f59 d63d b816 8fbc 1ed6 593a
00000050: 72d2 b1bd 2960 cf3d f812 033c c536 11bb
00000060: 4aa1 0b3c ee88 c9bd 0a2a e4bd aa0e 0abe
00000070: 85b1 9e3c 4368 87bd addb a33d 205d f43c
00000080: 70a3 08bd 811c 14be 7a9e 2bbc 523b 7a3d
00000090: e10a 873c 937f fabd 7469 f7bd 6ea3 f53d
000000a0: e87f 8cbd 80b7 af3d 0085 f43d eefd ac3d
000000b0: 33aa 0b3e 3713 d8bd 45ca 533d 32e4 8c3d
000000c0: 78f0 10be 027c 2cbd 64fb 0abe 5b95 b6bd
000000d0: a2dd cebd fe4a abbc 3afd 5b3d 30bf 00be
000000e0: a217 80bd 9053 6fbd 0239 5cbd acef 603d
000000f0: 5467 3ebd 4164 4abc 6115 ef3d f1fa 99bc
00000100: 7994 4a3c 6602 943c 7b9f 4abc 5f95 e6bc
00000110: 5966 f53c bc70 a93d dd14 13bd f134 64bd
00000120: 82e2 1c3c 5669 533d 69c1 f1bc 3c03 70bd
00000130: e4a4 06bd 60ad 053c ce63 87bd 29c0 c3bd
00000140: 4c83 d13d 5cb4 b6bd ca46 02be 7e23 2dbd
00000150: d8a2 f73d 8136 8d3a 0f9d b1bc 09d9 6bbc
00000160: 1460 9a3d 23b4 2b3d cd0a 84bb 35fa b1bd
00000170: 9760 93bc 4b6a 8d3d 884f 2c3c f0f6 9cbd
00000180: ba12 5e3d b2d5 963c 488a 0ebe 50da 0ebe
00000190: af14 c23d 30a6 043e dbd7 6cbd a404 03be
000001a0: b522 35bb 5550 92bd 8a2b c73d 25cc dd3c
000001b0: 9ce7 4c3d 7e7f e7bd 0249 e5bd 8441 b6bc
000001c0: 156e 3abc e297 14bb 3425 dabd 9321 9e3d
000001d0: dd40 ca3d 7a3d bd3d 05b3 7b3d 7364 00bd
000001e0: e4bf 883d efaa 26bd 2cc3 e3bd 2460 263d
000001f0: 74c6 adbd 825e beba d7ad 32bd 2cd7 ad3d
00000200: 3893 d5bd f2c2 6f3d a49f fdbd e0a1 c5bc
00000210: 188f 12be ad47 91b9 4eeb 81bd a8cc a43c
00000220: 336f bfbd f911 6b3d 515f 69bd 7165 84bc
00000230: 901b 8d3d c5bd d03d f053 8ebd dfbc f63d
00000240: dca5 923d d6f6 0bbe 2059 c63d 075b eb3c
00000250: 64f6 3d3d 9669 22bd 2223 1ebd 2cdb 59bd
00000260: 44f2 f13d c61c caba e03d 1d3b e424 f4ba
00000270: 0c7d c3bd 8fc5 a53d a24b d33d 5346 c7bd
00000280: bee2 84bd f864 963d b741 f8bd 29f4 cc3d
00000290: 072d dcbc ef6b 82bd e2f8 58bd 3a80 04bd
000002a0: 8b8e ccbc 4d5c 5bbd b2c1 06be df1c bbbd
000002b0: 5b6c a3bb 7d1f 723c 507e b23d 62f9 d93c
000002c0: 2a45 44bd 19a6 693d 5219 d1bd 04af a8bd
000002d0: 921f 023e 19e3 dcbd 0307 e93d 376d d4bd
000002e0: 8c20 dabc b981 9bbd 3850 ec3d 431b 09be
000002f0: a1aa 8fbd dab9 d7bd 8ece e53c c291 833c
00000300: 0abb a8bd ba9f d23c 43b0 e73d 3fe2 ec3d
00000310: d4b5 89bd 9f47 e93d 2422 0f3e a64b 693b
00000320: 57c7 01bd 50e1 03be 20c4 b33d 0762 8ebd
00000330: 14be b5bd baf2 78bc 2145 82bd 04d9 603d
00000340: ede5 48bc ea68 5e3d 99c3 893d 5335 b8bc
00000350: bde5 99bb 146c 08bd 5c52 d23a c860 ebbd
00000360: 1e12 03bc 9a49 0b3e a8a1 d73d ae34 75bc
00000370: e7e5 db3d 3adc a03d 9537 0bbe 827b c0bd
00000380: 3ae1 b53c d65f d53c 390a f7bc c2f9 e3bd
00000390: f302 18be 9356 27be 7021 9dbd 56e8 973d
000003a0: 526a 823d 645d 7dbc 0be7 5f3d 2777 63bd
000003b0: e8b8 9cbd 7fa5 51bd 53a8 02be 76ab 0e3e
000003c0: b773 63bd 8dbd 2ebe 4eca c4bd ea05 06bc
000003d0: b18d dd3d 44db 09be c3ee 35bc 719b 3e3d
000003e0: 2324 993d 59f0 da3d 5956 3d3d 92bd b4bd
000003f0: 08c9 803d 352c 4f3d 35d6 10be f880 e2bd
-0.079045616 0.10492213 -0.0942915 -0.081412375 -0.033311673 -0.10947551 0.11025081 -0.087868966
0.13531558 0.07990796 0.009631948 0.07184405 -0.09374332 0.12850426 -0.11474335 -0.048113674
0.021086974 0.104663126 -0.017466888 0.0008309799 -0.086827174 0.10125763 0.008000128 -0.002215789
0.008522341 -0.098405704 -0.11140831 -0.13482156 0.019371757 -0.06611683 0.08000884 0.029829562
-0.03335899 -0.14463998 -0.0104747955 0.06109173 0.01648468 -0.12231364 -0.120806605 0.11994062
-0.06860334 0.08579922 0.1193943 0.08446871 0.13639145 -0.1055054 0.05170657 0.06879462
-0.14154232 -0.04211045 -0.1357246 -0.08915206 -0.10100867 -0.020909782 0.053708293 -0.12572932
-0.062545076 -0.0584293 -0.053765304 0.05491607 -0.04648526 -0.012353004 0.116739996 -0.018796416
0.0123645 0.01806755 -0.012367125 -0.028147398 0.02995603 0.082734555 -0.03590857 -0.05571455
0.009575488 0.051614128 -0.02951117 -0.058596835 -0.032872096 0.008159012 -0.06610833 -0.09558136
0.10230121 -0.089211196 -0.12722316 -0.042270176 0.12091607 0.001077369 -0.021681337 -0.014395007
0.07537857 0.04191984 -0.004029608 -0.08690301 -0.017990394 0.069050394 0.010517009 -0.07664287
0.054217078 0.018412445 -0.13919938 -0.13950467 0.09476601 0.1295402 -0.057823043 -0.12794739
-0.0027639095 -0.07144228 0.09725101 0.027074883 0.050025567 -0.11303614 -0.11195566 -0.022248037
-0.011378785 -0.0022673537 -0.10651627 0.077212475 0.09875653 0.09240241 0.061450023 -0.031345796
0.06677225 -0.04069036 -0.111212105 0.04061903 -0.084851176 -0.0014524015 -0.043622818 0.084883064
-0.104284704 0.058535524 -0.12383965 -0.02412504 -0.14312398 -0.00027709958 -0.06343709 0.020117119
-0.093473814 0.057390187 -0.056975666 -0.016161652 0.06890023 0.10192446 -0.069496036 0.12047743
0.071605414 -0.13668379 0.09684968 0.028729929 0.046377555 -0.039651476 -0.038607724 -0.053187534
0.118137866 -0.0015419952 0.002399318 -0.0018626717 -0.09545335 0.08094322 0.1031716 -0.0973021
-0.0648856 0.07343477 -0.12121909 0.10007507 -0.02687694 -0.06368243 -0.05297173 -0.03234885
-0.024970314 -0.05355482 -0.13159826 -0.09136366 -0.004987282 0.014778015 0.087154984 0.026608173
-0.047917522 0.05704317 -0.102099076 -0.082365066 0.12707356 -0.10785503 0.113782905 -0.103723936
-0.026626848 -0.07593102 0.11538738 -0.13389306 -0.07014967 -0.10533495 0.028052595 0.016060714
-0.082388 0.02571093 0.11312916 0.115665905 -0.06724134 0.11390614 0.13977867 0.0035598068
-0.031684246 -0.12878919 0.08777642 -0.06952291 -0.08874145 -0.015194589 -0.063608415 0.054894462
-0.01226185 0.054299273 0.067267604 -0.022486364 -0.0046965764 -0.033306196 0.0016046274 -0.11493069
-0.007999925 0.13602296 0.1052888 -0.014966173 0.1073721 0.07854505 -0.13595422 -0.09398557
0.022202123 0.026046675 -0.030156242 -0.11131622 -0.14844875 -0.16341619 -0.07672393 0.074173614
0.06367935 -0.015464161 0.0546637 -0.055533554 -0.076524556 -0.05118322 -0.12759523 0.13932595
-0.055530276 -0.17064495 -0.09608899 -0.008180121 0.10818041 -0.1346255 -0.0111042885 0.04653496
0.07477596 0.10690374 0.046224926 -0.0882522 0.06288344 0.05057927 -0.14144213 -0.11059755

fc.0.bias f4 [32]
00000000: 7fa9 e5bc b845 27bd eb64 1e3d 42b3 01bc
00000010: 4975 15be c308 e7bd 9abd a93d 2d36 c13a
00000020: b02a de3d 11ea e23d 050a e4bd 15f7 c13d
00000030: 4554 aebd 6424 14be c95c f83d 0f6b 213d
00000040: 3efd 6dbd 7ec8 dcbc a61a 7b3d 3248 f1bc
00000050: 0eb6 533d f79b c6bd a597 45bd 4612 49bd
00000060: 6f73 113b 5bc0 663d a161 643d 76fe 093e
00000070: ee38 5dbd b7ac 523d d656 4c39 c641 103e
-0.028034924 -0.040837973 0.03867046 -0.007916274 -0.14595522 -0.11280968 0.08288117 0.0014740877
0.10847986 0.11079801 -0.111347236 0.09470955 -0.08512167 -0.14467007 0.12127072 0.03940874
-0.05810284 -0.02695107 0.06130471 -0.02945337 0.051687293 -0.09697717 -0.048240323 -0.049089693
0.0022194048 0.05633579 0.05575717 0.13475975 -0.05400937 0.051434245 0.00019487305 0.1408759

fc.1.weight f4 [8, 32]
00000000: 0d63 13bd fc9b 80bd aed9 073e 56c0 413d
00000010: d9f4 5bbe ed55 33bd c1dd abbd 666a da3d
00000020: 48e0 16be 29d4 0c3e a7f9 e939 8bb6 143e
00000030: 1b51 943c da6d 9ebd 2cbd d13d 5bee eabd
00000040: bd82 0abe 6164 14be ab13 d73d 4bdc 293e
00000050: 673c abbd 735c 2ebe acc2 943d e629 173e
00000060: c6e6 393e c476 013e e9c5 20be b7b0 5c3d
00000070: c585 a23d 48e2 1bbe 4ea4 cfbd f080 4dbe
00000080: 2922 2fbd eedf 533d 036a c9bd 0a4d b5bd
00000090: 5f30 cc3c e6ca 7bbd 6670 28bd ab03 6cbd
000000a0: f798 fcbd 264e 2f3e c389 0abe e491 ad3d
000000b0: 3010 dabd 2399 efbc 458a 903c c627 143e
000000c0: 945e c8bd cbab 52bd 03c3 723b 0420 723d
000000d0: aa60 bd3d 5b54 51bd 8a0d ce3c dd79 8ebc
000000e0: ae2a 7cbd cb09 153e 4ffb 9c3d 9517 fcbd
000000f0: f16e 00be 530a 743d b1ce bb3d c85d 113e
00000100: ef37 723d 82f7 4f3b 01d2 f7bd 4c4d 33be
00000110: 27e7 f03d a028 95bd 26a6 4a3d 9161 2ebe
00000120: c3c8 403d 0deb 1b3e b378 e23d e862 71bd
00000130: c843 f1bd 5011 1cbe 6c6a 9abd 8fa7 41bd
00000140: b683 1b3e 693a b6bd da4f fe3d ea06 0fbe
00000150: 79b0 093d 674b 083e 5703 8a3d 451b 653d
00000160: b0e5 76bc 8118 3b3e 6d21 1e3e 2430 223e
00000170: 502f 593d d916 6dbd 1c40 22be a799 2a3e
00000180: 36d3 1c3e 35bf b53c 33a9 123e 33a8 ed3d
00000190: 6412 06be bcde c43d b590 26be 3361 983d
000001a0: 4254 5c3c 0b62 b8bd d36e b5bd f0d9 f83d
000001b0: fbb1 113e f005 dabd 204d 1abe d48d d7bd
000001c0: 523b 13be 065e 143e 7464 e0bb 1346 d8bd
000001d0: 38cd 893d 9ce8 243d cfd3 b0bd def4 f1bd
000001e0: 7b5f 28be 4c79 0bbe e9ae 0fbe 7bf5 e03d
000001f0: 7497 0e3c 956a 733c dbb4 36bd e5c2 393e
00000200: 2db6 1cbe 9cf9 b83d 38d7 8d3d e323 8f3c
00000210: 84cc 263e f522 b4bd b85d b4bd d739 563d
00000220: 916f 0c3d 708b 43bd 8ca0 7a3c 904d 1bbe
00000230: bdf7 d0bc 976f 3b3d 4cf6 3c3e f50d 303e
00000240: 5d92 843b ccda cc3c b443 d13c 472a 12bd
00000250: 13b6 1abd f21f d8bd 4227 ee3d e429 e23c
00000260: 62cf 9abd 2913 26bd 5f25 6abd 316b 223e
00000270: 4a73 3abe e766 f8bd 5669 97ba cd40 033e
00000280: 557b 57bc 1f30 b33d 2eab b33d 8c87 72bd
00000290: d175 38be 8c7c d03d 2a88 2b3d f29e 0b3e
000002a0: fbf4 073b 0373 13bc 1581 103e bc2a a9bd
000002b0: 998e cabd ef57 0e3e acfa 87bd 7e93 b13d
000002c0: 93a3 51bd c100 263d 16a5 253e f526 d3bd
000002d0: be9f 26be f611 0ebe 6483 a1bc c793 2a3e
000002e0: 412c 20be c994 fe3b ae81 2abe 37b2 62bd
000002f0: 3d31 173e 3777 f1bc cf9d 253e 698a 25be
00000300: 98ae 09be f41b 553d 1628 ecbd 78e4 afbd
00000310: 4b0f 1ebe da23 03bd 501b 823c 51ef 20be
00000320: e3ca 03be 815b 023d cfa8 0dbe 9dd0 9abd
00000330: 8f52 aabd 6a96 6b3d af3d 02be 3eb9 e1bd
00000340: 0f7e e83d 9d2a 023e 28f1 ff3d a052 1d3e
00000350: 73ef a13d 2b73 933d 1c02 ebbd 0837 e63d
00000360: 852f 703e cbe2 e23c d46f 40be 5aee 9b3d
00000370: c871 b53c c582 2b3e f3e5 00bd e2ca c2bc
00000380: c75f 1bbe bf97 133d 3d0f 153e 4faa 653d
00000390: 9743 083d 9fe1 e33d 8a8b 103e c0fe a5bd
000003a0: 8361 393e fe68 4cbd 4e9b 1f3e 1311 dbbd
000003b0: a0f8 9cbc 18e1 d7bd 5e7e 1b3e 707c b2bc
000003c0: e4da 52bd dcac 59bc a144 ed3d 30c8 13be
000003d0: 5fd0 8cbd 1134 a83d 538e 9e3d 287a dfbd
000003e0: ecd1 e73d 3042 db3d a00b c63d 6890 e2bd
000003f0: bfb6 8bbc 97a7 c4bd f4ae 39bd fafd b1bd
-0.035983134 -0.06279752 0.13266632 0.047302566 -0.2148012 -0.043783117 -0.083919056 0.10664825
-0.14733994 0.13752808 0.0004462723 0.1452276 0.01810508 -0.07735796 0.1024116 -0.11471244
-0.13526435 -0.14491417 0.10501798 0.16587941 -0.0836113 -0.17027454 0.07263693 0.14762077
0.1815444 0.12642962 -0.15700497 0.053879466 0.07935671 -0.15223038 -0.101387605 -0.20068717
-0.042757187 0.051727228 -0.09834673 -0.08852585 0.024925409 -0.061472796 -0.041122817 -0.057620686
-0.12333863 0.17119655 -0.13529114 0.08475092 -0.10647619 -0.029247826 0.017644057 0.14468297
-0.09783664 -0.051433366 0.0037042506 0.059112564 0.09246953 -0.05110584 0.02515294 -0.017392093
-0.06156414 0.14554517 0.07665121 -0.123091854 -0.12542321 0.05958016 0.09170283 0.14195931
0.059135374 0.003173322 -0.12100602 -0.17509955 0.11762839 -0.07283139 0.049474858 -0.17029406
0.04706646 0.15226384 0.11058178 -0.058932215 -0.11780506 -0.15240979 -0.075398296 -0.047278937
0.15186962 -0.088978596 0.12417574 -0.13967481 0.033615563 0.13310014 0.06738918 0.05593421
-0.01506941 0.18271066 0.15442438 0.15838677 0.053023636 -0.057883117 -0.15844768 0.16660176
0.15314946 0.022185901 0.14322357 0.11604347 -0.13092953 0.09612796 -0.16266139 0.07440414
0.013447823 -0.09003075 -0.08859029 0.12150943 0.1422805 -0.10645664 -0.15068483 -0.105250984
-0.14378098 0.14488992 -0.0068479124 -0.105602406 0.067285955 0.040260896 -0.08634149 -0.11814283
-0.16442673 -0.1362049 -0.14031567 0.10984322 0.008703101 0.014856954 -0.04460607 0.18140753
-0.1530387 0.09031984 0.06925815 0.017473167 0.16288954 -0.0879573 -0.08806938 0.052301254
0.034286086 -0.0477404 0.015297066 -0.15166306 -0.025508756 0.045760717 0.1845333 0.17192824
0.004045768 0.025006674 0.025544979 -0.03568485 -0.037771296 -0.10552968 0.116285816 0.027607866
-0.075590864 -0.040545616 -0.057164546 0.15861203 -0.18208042 -0.12129002 -0.0011551778 0.12817688
-0.013151963 0.08749413 0.08772884 -0.0592113 -0.18013693 0.101800054 0.041877903 0.13634852
0.0020745385 -0.008999589 0.14111741 -0.08260104 -0.098904796 0.13900732 -0.06639609 0.0867071
-0.051181387 0.040528063 0.16176257 -0.10310165 -0.16271874 -0.13874039 -0.019715972 0.16657935
-0.15641882 0.0077692014 -0.16651031 -0.05534574 0.14764877 -0.029475791 0.1617348 -0.1616608
-0.13445508 0.05202861 -0.11531083 -0.08588499 -0.15435521 -0.032016613 0.015882164 -0.15716292
-0.12870364 0.031825546 -0.13833927 -0.07559321 -0.08316528 0.057516493 -0.12718843 -0.1102166
0.11352169 0.12711568 0.12497169 0.1536355 0.079069994 0.07199701 -0.11475012 0.11240965
0.23455627 0.027696034 -0.18792659 0.07613821 0.022148982 0.16749103 -0.031469297 -0.023778383
-0.15173255 0.03603339 0.14556594 0.056070622 0.033267584 0.11127018 0.1411573 -0.0810523
0.18103604 -0.049904816 0.15586588 -0.10696616 -0.019161522 -0.1054098 0.15184924 -0.021787852
-0.05147828 -0.013285842 0.115853556 -0.14431834 -0.06875681 0.08213056 0.0774199 -0.10911971
0.11319336 0.10705984 0.09670186 -0.110626996 -0.017054914 -0.09602278 -0.045332864 -0.0869102

fc.1.bias f4 [8]
00000000: a86a ec3c 4857 b0bc 275e 973d 5402 ddbc
00000010: 60e9 9a3d 34d0 debd 50ac 19bd 3244 3f3b
0.028859451 -0.021525994 0.07391005 -0.02697865 0.07564044 -0.10879555 -0.037517846 0.0029184935
