Other Experiments/data_reuploading/NQE/nq:4_nd:10/PCA-NQE_it2_44.pt (torch, 3663 bytes, 6 tensors)

linear_relu_stack2.0.weight f4 [12, 4]
-0.48497772 0.11497869 0.27705407 -0.46623656 0.48442015 -0.3780747 0.14732806 -0.28796557
0.15935408 -0.074846216 -0.03171723 0.46958673 -0.023561308 0.020383151 0.04970597 0.3924835
0.36381933 0.1945672 -0.42528966 0.1423428 0.14122853 -0.33748603 0.4151657 0.028021058
-0.25830188 0.030113671 -0.30274662 0.38007438 -0.02945054 -0.23507385 -0.4886611 0.44263488
-0.109379016 0.3099105 -0.06341238 -0.4457597 -0.11421171 -0.49520096 0.4742609 -0.420947
-0.29079324 0.014256635 -0.1759061 0.4499494 -0.48750928 0.08424456 -0.34403038 -0.071055055
00000000: 004f f8be f379 eb3d 08da 8d3e 8fb6 eebe
00000010: eb05 f83e 0293 c1be 2bdd 163e 3970 93be
00000020: b72d 233e f948 99bd ede9 01bd ac6d f03e
00000030: a503 c1bc 91fa a63c 7d98 4b3d 99f3 c83e
00000040: 8746 ba3e a03c 473e 91bf d9be 50c2 113e
00000050: 369e 103e f8ca acbe 9990 d43e 6b8c e53c
00000060: 2540 84be f2b0 f63c 9b01 9bbe 1c99 c23e
00000070: 4242 f1bc 33b7 70be ca31 fabe 0aa1 e23e
00000080: 1b02 e0bd 97ac 9e3e 5ade 81bd 9e3a e4be
00000090: d4e7 e9bd fb8a fdbe 53d2 f23e 5d86 d7be
000000a0: dae2 94be a994 693c bb20 34be c55f e63e
000000b0: d19a f9be 6988 ac3d c024 b0be 5085 91bd

linear_relu_stack2.0.bias f4 [12]
-0.4055667 -0.26924968 -0.057633594 0.08824016 0.19076885 0.052092813 -0.2986009 0.105563715
0.23140648 -0.40694353 -0.37726876 0.38442677
00000000: 70a6 cfbe 18db 89be 3411 6cbd 42b7 b43d
00000010: e958 433e 465f 553d 38e2 98be ca31 d83d
00000020: d2f5 6c3e e75a d0be 5f29 c1be 96d3 c43e

linear_relu_stack2.2.weight f4 [12, 12]
-0.1308743 -0.10967126 0.00688576 -0.14507218 -0.02631896 -0.12108931 -0.17872386 -0.21627915
0.20772016 0.116042785 -0.09281025 0.14046054 -0.08084031 0.0506807 -0.11592852 0.2335987
0.17668678 0.012341551 0.23755075 -0.13774301 -0.22023697 0.2566139 -0.10821074 -0.10964328
0.021953475 0.23455337 0.1494258 -0.07297101 0.4657133 0.22470559 -0.25892347 0.21600638
0.17384303 0.2656832 0.17568201 -0.40617564 0.15882276 -0.093489066 0.124230094 0.2878514
-0.24410197 -0.033009507 0.09209364 0.11513498 0.1571994 0.058740307 0.044725154 -0.2836685
-0.20551886 0.18298407 0.09815145 -0.10046696 -0.092486575 -0.25854886 0.26226458 0.0844668
0.08696151 0.07578656 0.2140422 -0.24600671 -0.12249213 -0.26680988 0.0114183165 0.27206048
0.024624437 -0.011155608 -0.22132993 -0.16730292 -0.19972108 -0.25524652 0.03191362 0.041626185
0.14415544 0.24502203 -0.06928306 0.15973644 -0.12048683 0.13551906 -0.20530353 0.13852961
0.28040183 -0.31575608 0.32592836 0.118775584 0.18769504 -0.2345337 0.027443841 -0.20005791
0.019705629 -0.10065531 -0.111332 0.05274348 0.1642163 0.05039284 -0.14930628 0.2109956
-0.15683575 0.29208156 0.28473175 -0.03873601 -0.1753585 -0.1771867 0.023073798 0.18783459
-0.101926 -0.20133933 0.105440825 0.19043365 0.15984863 -0.07045152 -0.030006487 -0.03139749
0.043331306 -0.02660253 0.24026738 -0.02218268 0.23487332 0.1828966 -0.13468127 0.26931363
-0.17136307 0.21162595 0.16866279 0.058240756 0.12760645 0.08185749 0.154683 0.15001889
0.040286656 -0.24450284 -0.08085195 0.26519135 0.15834224 -0.0034692984 0.15155436 0.124838054
-0.18002622 0.27017662 0.09688328 -0.14250337 -0.043241307 0.11260181 0.24175003 -0.025179498
00000000: ea03 06be 539b e0bd f1a1 e13b cd8d 14be
00000010: dc9a d7bc acfd f7bd 6303 37be 4878 5dbe
00000020: 98b4 543e d7a7 ed3d 4d13 bebd e3d4 0f3e
00000030: 9b8f a5bd 9196 4f3d ef6b edbd 7f34 6f3e
00000040: 61ed 343e 3734 4a3c 8140 733e 810c 0dbe
00000050: cd85 61be e662 833e 989d ddbd a88c e0bd
00000060: c6d7 b33c c22e 703e 1403 193e d371 95bd
00000070: f971 ee3e 3919 663e 9e91 84be c730 5d3e
00000080: e803 323e a107 883e fce5 333e 41f6 cfbe
00000090: 6fa2 223e 3277 bfbd 596c fe3d 4261 933e
000000a0: def5 79be fa34 07bd 979b bc3d e3cb eb3d
000000b0: e1f8 203e ad99 703d b931 373d ff3c 91be
000000c0: 8973 52be 2d60 3b3e a103 c93d 9fc1 cdbd
000000d0: 9a69 bdbd 8460 84be 8b47 863e eefc ac3d
000000e0: e018 b23d fc35 9b3d e12d 5b3e 2fe9 7bbe
000000f0: 27dd fabd 4e9b 88be e413 3b3c 834b 8b3e
00000100: 30b9 c93c 03c6 36bc 50a4 62be 7551 2bbe
00000110: af83 4cbe acaf 82be dbb7 023d 3880 2a3d
00000120: 7c9d 133e 0ee7 7a3e 47e4 8dbd f391 233e
00000130: cdc1 f6bd 82c5 0a3e 173b 52be b5da 0d3e
00000140: d490 8f3e c8aa a1be 15e0 a63e 9d40 f33d
00000150: 2133 403e 9a29 70be e8d1 e03c fbdb 4cbe
00000160: b36d a13c 5f24 cebd 0802 e4bd 8c09 583d
00000170: 5128 283e b968 4e3d bfe3 18be 3b0f 583e
00000180: 8d99 20be b78b 953e 5cc8 913e a7a9 1ebd
00000190: 2e91 33be 6e70 35be 4305 bd3c b657 403e
000001a0: 94be d0bd e62b 4ebe 5cf1 d73d 0a01 433e
000001b0: 5caf 233e e348 90bd 2ad0 f5bc a89a 00bd
000001c0: 2b7c 313d 8ded d9bc a708 763e 74b8 b5bc
000001d0: a282 703e 3f49 3b3e e3e9 09be 7ae3 893e
000001e0: cd79 2fbe 79b4 583e f0b5 2c3e dc8d 6e3d
000001f0: 44ab 023e e6a4 a73d 3865 1e3e 8d9e 193e
00000200: 9f03 253d f45e 7abe b595 a5bd 29c7 873e
00000210: 7824 223e 2b5d 63bb 1131 1b3e 18ab ff3d
00000220: cb58 38be 9754 8a3e be6a c63d 67ec 11be
00000230: cc1d 31bd c79b e63d 528d 773e 3c45 cebc

linear_relu_stack2.2.bias f4 [12]
0.08965107 -0.2320918 0.16585885 -0.21831197 0.16825096 0.08438101 -0.011281655 -0.07236015
-0.17151992 -0.12093402 -0.23189256 -0.12994814
00000000: fb9a b73d 79a9 6dbe e7d6 293e 2c8d 5fbe
00000010: fb49 2c3e f3cf ac3d b1d6 38bc 8f31 94bd
00000020: eba2 2fbe 41ac f7bd 3e75 6dbe 2011 05be

linear_relu_stack2.4.weight f4 [8, 12]
0.049685236 -0.0866924 -0.38735178 -0.069076784 0.1824173 0.19226412 0.27940482 0.28131518
-0.13591209 0.1570226 0.14679904 0.15305865 -0.0720623 0.034237813 0.30912977 -0.2906497
-0.07207362 -0.18068194 -0.03823807 -0.0037880116 -0.17660397 0.046378627 0.10545761 0.11417328
0.10168552 0.10399138 0.0130510535 0.20293824 -0.27829236 -0.069774576 0.2353162 -0.0006543177
-0.09792416 0.08344108 0.007998713 0.14325015 0.04680939 0.22240072 0.106162384 -0.15152878
0.23791628 0.17046602 -0.033539772 -0.26370856 -0.26382947 0.04475237 -0.23434052 -0.18076053
-0.09447349 0.25531518 0.3858503 -0.046215784 0.018347684 0.18710972 -0.08387293 0.04019392
0.12271582 0.16524239 -0.24860719 0.2833698 -0.19852218 0.12055228 0.045673385 -0.101403296
-0.04166797 0.2892531 -0.08810853 0.13089254 0.0030151182 0.2800239 0.029725505 0.08442834
0.25256005 0.12667847 -0.2573929 0.25482425 -0.09440989 -0.10802785 0.13482834 0.04954925
-0.065179236 -0.20906366 0.1642977 -0.013764913 0.2905276 0.28472254 -0.2609581 -0.12925221
0.045797314 0.08885539 0.13471416 -0.04385548 0.22842747 0.08495473 -0.057102438 -0.23902917
00000000: bf82 4b3d c98b b1bd f952 c6be 2178 8dbd
00000010: 9acb 3a3e e3e0 443e 260e 8f3e 8b08 903e
00000020: 8a2c 0bbe 88ca 203e 7d52 163e 68bb 1c3e
00000030: 6695 93bd f33c 0c3d 4246 9e3e 0ad0 94be
00000040: 569b 93bd b004 39be 869f 1cbd 4a40 78bb
00000050: acd7 34be 84f7 3d3d 29fa d73d aed3 e93d
00000060: 7f40 d03d 6ff9 d43d 16d4 553c 0bcf 4f3e
00000070: 567c 8ebe f9e5 8ebd bbf6 703e 8486 2bba
00000080: 768c c8bd 28e3 aa3d 090d 033c 2bb0 123e
00000090: 34bb 3f3d 04bd 633e aa6b d93d 5c2a 1bbe
000000a0: 53a0 733e a58e 2e3e 0061 09bd cf04 87be
000000b0: a814 87be 434e 373d f6f6 6fbe 4a19 39be
000000c0: 517b c1bd acb8 823e 2c8e c53e c34c 3dbd
000000d0: e24d 963c b199 3f3e 92c5 abbd 61a2 243d
000000e0: 6f52 fb3d 4d35 293e e292 7ebe d915 913e
000000f0: 6649 4bbe 1de4 f63d 0414 3b3d 88ac cfbd
00000100: 09ac 2abd fb18 943e 3f72 b4bd b208 063e
00000110: 4a99 453b 4b5f 8f3e e782 f33c c4e8 ac3d
00000120: 8d4f 813e 00b8 013e 01c9 83be 5378 823e
00000130: f959 c1bd b53d ddbd 7110 0a3e 28f4 4a3d
00000140: b17c 85bd c914 56be a83d 283e 3b86 61bc
00000150: 09c0 943e 27c7 913e 4d9c 85be b15a 04be
00000160: f795 3b3d d1f9 b53d 82f2 093e cea1 33bd
00000170: e4e8 693e bffc ad3d 3fe4 69bd 10c4 74be

linear_relu_stack2.4.bias f4 [8]
0.15295361 -0.15054655 0.08609734 -0.30439797 0.030058816 -0.22113653 -0.21587072 -0.14629017
00000000: df9f 1c3e e028 1abe cd53 b03d 0dda 9bbe
00000010: e83d f63c 9d71 62be 370d 5dbe 17cd 15be
