Other Experiments/data_reuploading/TUE/nq:4_nl:3_nd:10/it2_38.pt (torch, 872 bytes, 1 tensors)

qlayer2.weights f4 [24]
0.35299754 4.302097 2.7613304 4.71503 5.799517 4.563255 4.373285 2.864325
5.993176 5.5077586 0.8709433 1.8634958 2.930283 3.9709554 0.17034008 1.0065638
5.943092 5.0449185 5.8818655 0.45619023 4.804354 1.177978 3.1249747 0.08987755
00000000: 18bc b43e c7aa 8940 a3b9 3040 87e1 9640
00000010: a595 b940 2f06 9240 f3f1 8b40 1a51 3740
00000020: 19c8 bf40 8f3f b040 24f6 5e3f 0887 ee3f
00000030: c289 3b40 2224 7e40 a16d 2e3e 15d7 803f
00000040: cf2d be40 f96f a140 3e38 bc40 c491 e93e
00000050: 45bd 9940 fcc7 963f 96ff 4740 b911 b83d
