Other Experiments/data_reuploading/TUE/nq:2_nl:10_nd:5/it0_42.pt (torch, 936 bytes, 1 tensors)

qlayer2.weights f4 [40]
5.409114 1.9780536 4.9599814 2.8385744 2.1161919 0.6691843 0.101585835 5.068239
5.144791 5.3535004 0.78932744 4.314944 3.590153 3.0598285 0.11621955 3.999475
4.652971 5.9548683 0.72562075 2.7274437 3.2180662 2.8195584 6.202625 5.679918
6.0558043 3.9371884 5.121284 5.6351547 4.1569715 2.997924 3.902531 1.2883271
4.2060733 0.16880517 0.6082176 5.9419703 5.670409 1.0313108 3.8581774 4.391746
00000000: 7617 ad40 dc30 fd3f 2bb8 9e40 34ab 3540
00000010: b06f 0740 aa4f 2b3f 3c0c d03d 042f a240
00000020: 21a2 a440 e04f ab40 5d11 4a3f 0514 8a40
00000030: 11c5 6540 3bd4 4340 8404 ee3d 66f7 7f40
00000040: 23e5 9440 488e be40 48c2 393f 708e 2e40
00000050: ccf4 4d40 a573 3440 e77b c640 e3c1 b540
00000060: 26c9 c140 e5fa 7b40 8fe1 a340 3053 b440
00000070: e905 8540 fddd 3f40 11c3 7940 e7e7 a43f
00000080: 2798 8640 43db 2c3e 26b4 1b3f 9f24 be40
00000090: fe73 b540 fe01 843f 61ec 7640 2f89 8c40
