Other Experiments/data_reuploading/TUE/nq:4_nl:2_nd:5/it0_16.pt (torch, 808 bytes, 1 tensors)

qlayer2.weights f4 [16]
3.533061 2.315183 2.1911614 5.5509744 5.932885 3.9210625 5.543117 5.5520983
1.2234879 4.875131 0.64954805 0.74171275 2.844495 3.8423476 0.44973755 4.071444
00000000: ac1d 6240 f52b 1440 fd3b 0c40 95a1 b140
00000010: 32da bd40 b0f2 7a40 3761 b140 caaa b140
00000020: 409b 9c3f 1301 9c40 c848 263f e3e0 3d3f
00000030: 350c 3640 06e9 7540 0044 e63e 4549 8240
