Other Experiments/data_reuploading/TUE/nq:4_nl:2_nd:5/it2_50.pt (torch, 808 bytes, 1 tensors)

qlayer2.weights f4 [16]
0	0x40588d0e	3.3836093
1	0x401774ff	2.3665159
2	0x408301de	4.093978
3	0x3fdd274f	1.7277621
4	0x401743fa	2.363524
5	0x4081282d	4.0361543
6	0x3f303e15	0.6884473
7	0x40160b9d	2.3444588
8	0x408359b1	4.1046987
9	0x40a25f81	5.074158
10	0x4095e94c	4.6847286
11	0x3f611c4a	0.8793379
12	0x40bc8710	5.891487
13	0x3fece77e	1.8508146
14	0x407b2efd	3.924743
15	0x40be2ee8	5.943226
