Other Experiments/data_reuploading/NQE/nq:2_nd:50/NQE_it4_43.pt (torch, 9709 bytes, 6 tensors)

layer1.0.weight f4 [1, 1, 3, 3]
-0.15554321 -0.19324687 0.036358796 -0.20704986 0.3400945 0.4737223 0.16493453 0.11476919
0.15025045
00000000: b846 1fbe 82e2 45be f6ec 143d e104 54be
00000010: de20 ae3e bb8b f23e 99e4 283e 1c0c eb3d
00000020: 41db 193e

layer2.0.weight f4 [1, 1, 3, 3]
0.116448 -0.0027839653 -0.10260889 0.32819867 -0.090644464 -0.29664513 0.37518713 0.31861287
0.22919728
00000000: 4a7c ee3d 3073 36bb 9c24 d2bd a809 a83e
00000010: cea3 b9bd dfe1 97be 8718 c03e 3a21 a33e
00000020: b1b2 6a3e

fc.0.weight f4 [32, 49]
0.004223404 0.054633927 0.02083106 -0.023617081 0.12586899 -0.022470232 0.10528724 0.02106251
0.033972844 0.04168563 -0.024280341 -0.042368017 0.06366534 0.06615929 -0.13061772 -0.06476171
0.022552466 0.0564991 0.006655834 0.07153285 0.117881306 0.074601635 0.0015815278 0.041702468
0.09082862 -0.028683241 -0.05118158 -0.08929307 0.13277626 -0.09137899 0.06992969 0.001299144
0.045866236 0.008955596 -0.14221127 0.12915908 0.13639648 -0.07542384 0.022610886 0.023905138
0.056679487 -0.025045741 -0.08172361 0.059766658 -0.034069996 0.08597228 -0.041720465 -0.027402714
0.10121927 0.036980096 -0.13437915 -0.048693456 0.04852231 -0.06291673 -0.093285225 0.09020568
-0.108670674 -0.106766455 -0.123356596 0.052986093 -0.08249413 0.09691444 0.12858419 -0.007175933
-0.111533076 -0.11854752 -0.110343486 -0.049574967 0.007644226 0.040142715 -0.0415099 0.07634707
-0.0052455734 -0.0714415 -0.08885394 -0.08742918 0.068071075 -0.0030154143 0.022545395 -0.049569733
-0.13440774 -0.0007362087 0.02072515 0.13871089 0.015849391 0.05194266 -0.092466876 0.016690848
0.027274018 0.035401307 -0.14239588 -0.143071 -0.103303924 0.011955568 0.10653554 -0.12888384
0.104125865 -0.13380334 0.120048866 -0.038624965 0.049146973 0.08581032 0.11963254 -0.10939699
0.03917951 0.07672131 -0.014618045 0.08338061 -0.031080913 0.08004783 0.049617723 0.08273661
0.022026008 0.122492656 -0.04290512 -0.090960234 -0.11505214 0.06164956 -0.025195343 -0.04735608
0.13436502 -0.0005365198 -0.018188242 0.0043459116 0.12391915 -0.052701987 0.0070553576 0.036899935
0.026944155 0.039114773 -0.03988795 0.056270026 -0.07672859 0.02200405 -0.027788937 0.001851039
0.09272053 -0.038665798 0.13484256 0.051788874 0.017217908 -0.10779411 -0.008431411 0.07356241
0.05449955 0.041843027 -0.038988397 0.10997624 -0.085778 0.0071952846 0.006511624 0.0012222504
-0.13001075 0.1123158 -0.045395907 0.01509132 -0.06318891 -0.10569475 -0.113621086 0.07139331
0.10657556 -0.047502823 -0.10725558 -0.0025464008 -0.054040357 0.034560457 -0.03487624 -0.13805518
0.016935952 -0.03418728 -0.14957204 0.063984364 0.13035248 -0.18474914 -0.034939922 0.08723958
-0.029044703 -0.11538902 0.039767146 -0.13287298 0.055423867 -0.13071945 -0.10949715 0.101109855
-0.09787737 0.13239358 -0.07726383 -0.11361247 -0.09305628 -0.017922863 -0.11869772 -0.0006573419
-0.039548595 0.10224867 0.09913988 0.09658685 -0.047851477 -0.024931857 0.07176329 -0.039875217
0.1372449 0.041711703 -0.05381873 0.11996553 0.016950095 0.046788514 0.14378154 -0.08476651
0.11656854 -0.035813756 0.11756233 -0.12187735 0.06436802 -0.12165152 0.071264625 -0.07856662
0.065407194 -0.12671182 0.09387378 0.10806 -0.073094055 0.038733624 -0.037469093 0.14264016
-0.091256864 0.1475659 -0.0008367488 -0.082227685 0.08877438 0.0986078 0.0042672064 -0.061530497
-0.027574008 -0.11990155 0.009933575 -0.092001535 -0.09394328 0.055867508 -0.013976375 0.038975444
-0.09031397 -0.027691351 -0.046825908 -0.11138226 -0.025127351 -0.03603272 0.09158551 0.11244197
-0.09763239 -0.13223039 0.094778344 0.033099152 0.034014463 0.12302195 -0.03505008 -0.06453491
00000000: 7b64 8a3b d3c7 5f3d e6a5 aa3c 9c78 c1bc
00000010: cde3 003e 7e13 b8bc d6a0 d73d 498b ac3c
00000020: 1c27 0b3d 8dbe 2a3d 91e7 c6bc 168a 2dbd
00000030: f962 823d 867e 873d a7c0 05be caa1 84bd
00000040: f3bf b83c 9a6b 673d 2f19 da3b d17f 923d
00000050: c16b f13d bec8 983d 444b cf3a 35d0 2a3d
00000060: 5b04 ba3d 1ef9 eabc c7a3 51bd 49df b6bd
00000070: 80f6 073e e824 bbbd 4c37 8f3d 0a48 aa3a
00000080: 3cde 3b3d 7eba 123c d59f 11be 4742 043e
00000090: 85ab 0b3e d077 9abd 773a b93c b5d4 c33c
000000a0: c028 683d ba2c cdbc b55e a7bd e2cd 743d
000000b0: fb8c 0bbd 3c12 b03d 14e3 2abd a87b e0bc
000000c0: 0c4c cf3d 7178 173d b09a 09be ca72 47bd
000000d0: 54bf 463d 7dda 80bd 530c bfbd c1bd b83d
000000e0: bb8e debd 5fa8 dabd 62a2 fcbd f207 593d
000000f0: aff2 a8bd 147b c63d 93ab 033e 1724 ebbb
00000100: 746b e4bd 0bc9 f2bd c4fb e1bd 1f0f 4bbd
00000110: 6a7c fa3b b06c 243d 4906 2abd da5b 9c3d
00000120: 0fe3 abbb ec4f 92bd 0ef9 b5bd 120e b3bd
00000130: d968 8b3d 429e 45bb 1fb1 b83c a209 4bbd
00000140: 2fa2 09be 21fe 40ba cac7 a93c 3a0a 0e3e
00000150: 95d6 813c d4c1 543d 465f bdbd 3fbb 883c
00000160: c36d df3c f600 113d 3ad0 11be 3481 12be
00000170: 0291 d3bd 49e1 433c 4e2f da3d 20fa 03be
00000180: f13f d53d be03 09be 2edc f53d 3635 1ebd
00000190: 564e 493d 52bd af3d e801 f53d 870b e0bd
000001a0: b27a 203d 1020 9d3d 8680 6fbc 74c3 aa3d
000001b0: 669d febc 1ef0 a33d f43b 4b3d d071 a93d
000001c0: e36f b43c 6edd fa3d 47bd 2fbd 5c49 babd
000001d0: 75a0 ebbd 4084 7c3d 7766 cebc 73f8 41bd
000001e0: fc96 093e 3ca5 0cba 82ff 94bc 2668 8e3b
000001f0: 53c9 fd3d 0ade 57bd a130 e73b 6324 173d
00000200: fdb9 dc3c d036 203d 8c61 23bd 667b 663d
00000210: e123 9dbd d641 b43c a0a5 e3bc 909e f23a
00000220: 43e4 bd3d 0760 1ebd 2b14 0a3e 9220 543d
00000230: 920c 8d3c 29c3 dcbd e723 0abc e4a7 963d
00000240: ec3a 5f3d 9863 2b3d 4cb2 1fbd 393b e13d
00000250: 60ac afbd 6cc6 eb3b 765f d53b eb33 a03a
00000260: 8a21 05be d305 e63d 0ff1 39bd 9541 773c
00000270: 3069 81bd 7d76 d8bd 2cb2 e8bd a836 923d
00000280: 4a44 da3d 5292 42bd d0a8 dbbd 84e1 26bb
00000290: 6c59 5dbd 448f 0d3d 63da 0ebd 565e 0dbe
000002a0: 44bd 8a3c f607 0cbd 6a29 19be 3c0a 833d
000002b0: 1f7b 053e e12e 3dbe 2a1d 0fbd aaaa b23d
000002c0: 28ef edbc 1451 ecbd e0e2 223d db0f 08be
000002d0: 2304 633d 52db 05be 0b40 e0bd af12 cf3d
000002e0: ee73 c8bd 2f92 073e 803c 9ebd a8ad e8bd
000002f0: 4a94 bebd f8d2 92bc ca17 f3bd 7851 2cba
00000300: b5fd 21bd c067 d13d d909 cb3d 54cf c53d
00000310: e9ff 43bd e53d ccbc a2f8 923d 3254 23bd
00000320: ed89 0c3e e4d9 2a3d 0771 5cbd 7db0 f53d
00000330: edda 8a3c 50a5 3f3d 783b 133e 109a adbd
00000340: 7dbb ee3d 72b1 12bd 85c4 f03d d59a f9bd
00000350: 61d3 833d 6f24 f9bd 30f3 913d 89e7 a0bd
00000360: 35f4 853d bec0 01be e540 c03d 904e dd3d
00000370: 56b2 95bd 26a7 1e3d 3179 19bd 4310 123e
00000380: e1e4 babd 841b 173e 4359 5bba fd66 a8bd
00000390: 58cf b53d e3f2 c93d ecd3 8b3b 6707 7cbd
000003a0: e3e2 e1bc f28e f5bd 6fc0 223c 4d6b bcbd
000003b0: 5665 c0bd 54d5 643d 2afd 64bc b7a4 1f3d
000003c0: 88f6 b8bd f9d8 e2bc 86cc 3fbd 621c e4bd
000003d0: e0d7 cdbc 0c97 13bd 2f91 bb3d fa47 e63d
000003e0: 7ef3 c7bd 6767 07be 261b c23d fa92 073d
000003f0: c052 0b3d eff2 fb3d ac90 0fbd e12a 84bd

fc.0.bias f4 [32]
-0.05822891 0.02552644 0.05580229 0.027385144 -0.08517203 -0.03833934 -0.03982866 0.10344225
-0.016841412 -0.08677276 0.021250632 -0.045727745 0.0052845343 0.053420335 -0.08258008 -0.02667896
-0.13657275 0.021594645 -0.087097906 0.074775584 -0.0616349 0.042206325 -0.09739479 -0.084697954
-0.09407239 0.053531718 -0.09213464 0.11192792 -0.109851666 0.043780766 0.027764767 0.09553446
00000000: 7081 6ebd d31c d13c f190 643d cf56 e03c
00000010: ac6e aebd b609 1dbd 6123 23bd 88d9 d33d
00000020: 00f7 89bc ebb5 b1bd ce15 ae3c 044d 3bbd
00000030: e329 ad3b 48cf 5a3d bf1f a9bd d68d dabc
00000040: bad9 0bbe 41e7 b03c 6360 b2bd f123 993d
00000050: e074 7cbd 8ae0 2c3d eb76 c7bd 1f76 adbd
00000060: 06a9 c0bd 1344 5b3d 16b1 bcbd 773a e53d
00000070: e9f9 e0bd 7653 333d f072 e33c 92a7 c33d

fc.1.weight f4 [3, 32]
-0.12178747 -0.18314604 -0.074283116 0.091086596 -0.17958803 0.11697908 -0.1233978 -0.0095340125
0.05602969 -0.16706944 -0.20782815 -0.120491385 0.13518718 0.16014895 0.076305225 -0.10300056
-0.15221314 0.02349745 0.13255972 0.08757437 -0.098636955 0.07589784 -0.10117343 -0.15124646
-0.15671283 -0.15261896 0.08724754 -0.16701889 -0.09114908 -0.08839275 -0.14243655 -0.07512252
0.009817276 -0.016535807 -0.105391435 0.1601173 -0.12097641 -0.10868429 -0.22499463 -0.13890605
-0.065358445 0.02387041 -0.10449582 0.0017631233 -0.048036993 0.14330676 0.002835175 0.03927911
0.032407433 -0.004010602 -0.10148776 -0.12588428 0.10589401 0.06615868 0.06723081 -0.06541838
-0.07876848 -0.06479626 -0.13208435 -0.1568454 -0.053903107 0.12021717 0.005497493 0.016378386
0.1489121 0.16913441 -0.08998671 0.10832016 -0.025591478 0.20276065 -0.07917513 -0.17112836
-0.122828595 -0.010389659 -0.11749903 0.13030317 0.0074933385 -0.026159702 -0.1580528 -0.16365778
-0.028858688 0.101756915 -0.094506465 -0.074174315 0.17232595 0.14278775 -0.010322548 -0.037791632
0.093669765 0.0008488066 0.14406584 -0.15406384 0.0846616 -0.07584936 0.127829 -0.059345137
00000000: b66b f9bd a38a 3bbe bf21 98bd 9c8b ba3d
00000010: ede5 37be ba92 ef3d fcb7 fcbd 8c34 1cbc
00000020: 637f 653d 4014 2bbe e7d0 54be 30c4 f6bd
00000030: 826e 0a3e 16fe 233e ea45 9c3d f5f1 d2bd
00000040: c3dd 1bbe b97d c03c bcbd 073e 315a b33d
00000050: 2c02 cabd 5470 9b3d 0434 cfbd 5ae0 1abe
00000060: 5479 20be 2548 1cbe d7ae b23d 0007 2bbe
00000070: 5eac babd 4207 b5bd e3da 11be d6d9 99bd
00000080: a4d8 203c 1a76 87bc 77d7 d7bd caf5 233e
00000090: 7bc2 f7bd de95 debd fe64 66be 633d 0ebe
000000a0: a6da 85bd e18b c33c e801 d6bd 9a18 e73a
000000b0: 70c2 44bd 02bf 123e 58ce 393b 22e3 203d
000000c0: a8bd 043d 5e6b 83bb d1d8 cfbd cfe7 00be
000000d0: f5de d83d 347e 873d 4fb0 893d 12fa 85bd
000000e0: 5e51 a1bd e7b3 84bd 1f41 07be 159c 20be
000000f0: 81c9 5cbd 6b34 f63d 5024 b43b f72b 863c
00000100: 6a7c 183e 9231 2d3e f44a b8bd f6d6 dd3d
00000110: 38a5 d1bc 7da0 4f3e 9226 a2bd 463c 2fbe
00000120: 8f8d fbbd 6339 2abc 55a3 f0bd 326e 053e
00000130: ae8a f53b df4c d6bc 98d8 21be e895 27be
00000140: 0e69 ecbc ee65 d03d 9b8c c1bd b4e8 97bd
00000150: 3776 303e f436 123e e81f 29bc 66cb 1abd
00000160: efd5 bf3d 7282 5e3a ff85 133e e9c2 1dbe
00000170: 1063 ad3d e956 9bbd 9be5 023e e313 73bd

fc.1.bias f4 [3]
0.062176738 0.19793898 0.015216292
00000000: 09ad 7e3d 84b0 4a3e c14d 793c
