Other Experiments/data_reuploading/NQE/nq:2_nd:50/NQE_it4_6.pt (torch, 9699 bytes, 6 tensors)

layer1.0.weight f4 [1, 1, 3, 3]
-0.15722989 -0.2880518 -0.12951525 -0.19849719 0.22198626 0.2847096 0.15217614 0.008371722
-0.027840862
00000000: df00 21be 877b 93be a59f 04be d942 4bbe
00000010: 5e50 633e 75c5 913e 10d4 1b3e 8c29 093c
00000020: 8512 e4bc

layer2.0.weight f4 [1, 1, 3, 3]
0.015876247 -0.06742174 -0.07692286 0.20848005 -0.16555442 -0.27439153 0.2601755 0.28734782
0.25559092
00000000: e70e 823c 6914 8abd bc89 9dbd cb7b 553e
00000010: 1987 29be 0c7d 8cbe b935 853e 411f 933e
00000020: d0dc 823e

fc.0.weight f4 [32, 49]
0.0043448918 0.054133456 0.021249445 -0.017877545 0.13274856 -0.020608798 0.10582416 0.021333445
0.03385416 0.04181855 -0.019540468 -0.03528957 0.06961456 0.067597374 -0.13166697 -0.06605792
0.022156011 0.061710242 0.008581158 0.08114021 0.11935694 0.07678278 0.004439365 0.05011035
0.09336646 -0.026609438 -0.040092066 -0.08775845 0.13164446 -0.09185776 0.079516046 0.003947253
0.043433532 0.0131251635 -0.14176984 0.12902439 0.13608468 -0.06698692 0.032523885 0.028673757
0.0566365 -0.024971142 -0.081545286 0.059784178 -0.034113497 0.08718502 -0.040666595 -0.027397523
0.101483874 0.037247606 -0.13400993 -0.048573602 0.052001264 -0.05501461 -0.0898162 0.09086688
-0.108323306 -0.107635096 -0.1238031 0.05617076 -0.07377294 0.10236454 0.12920757 -0.008204089
-0.11275219 -0.119989425 -0.10436762 -0.044839844 0.012892933 0.040571854 -0.03964763 0.078332156
-0.0004330578 -0.06683935 -0.08602297 -0.08157187 0.06892825 -0.0035968968 0.022256933 -0.041279912
-0.13121894 -0.003916058 0.02361063 0.13960259 0.015848333 0.051817443 -0.08183937 0.027622432
0.029177444 0.036036145 -0.14218044 -0.1427962 -0.1031942 0.012659976 0.1078584 -0.12817359
0.10427809 -0.1334241 0.12124588 -0.031221524 0.053587094 0.07317807 0.119267344 -0.10194437
0.039992366 0.07748303 -0.016573617 0.08303507 -0.04049413 0.08208842 0.04132499 0.07718796
0.023605071 0.12463598 -0.04369438 -0.08985335 -0.09917478 0.030736484 -0.03227435 -0.052058812
0.12632284 -0.024862599 -0.00731217 0.011617436 0.08745971 -0.058310498 0.011572133 0.036373608
0.013414161 0.044319153 -0.03237966 0.049084835 -0.0738214 0.023583023 -0.027576225 0.003365698
0.088371255 -0.054046918 0.13985194 0.05306191 0.01804312 -0.10675729 -0.0035193954 0.073127575
0.05246954 0.04308999 -0.038150087 0.10830037 -0.09537202 0.0027089694 0.02499143 0.0030495445
-0.13948895 0.111385725 -0.046425074 0.018228708 -0.06157056 -0.09252128 -0.11491364 0.08346048
0.11425819 -0.049447402 -0.10938562 -0.0009192276 -0.05629305 0.013293424 0.0070148925 -0.1283315
0.023008866 -0.022739071 -0.11624659 0.048289012 0.12059618 -0.1351434 -0.027251977 0.08111268
-0.02792441 -0.09570493 0.03423893 -0.14162545 0.06621531 -0.13419959 -0.11164959 0.10066057
-0.098986864 0.13879386 -0.057185225 -0.12004363 -0.09481166 -0.019072521 -0.1201192 -0.007325776
-0.038987815 0.104983605 0.0973943 0.095417224 -0.0459683 -0.015039338 0.074297674 -0.061059576
0.13649108 0.052967988 -0.052504603 0.12116526 0.010687516 0.03999306 0.12915538 -0.08114855
0.10407 -0.044089686 0.1184438 -0.12283147 0.05985876 -0.1145409 0.09813101 -0.12137925
0.054491077 -0.1329221 0.07968866 0.07363358 -0.051165085 0.05096587 -0.09054109 0.13400832
-0.08462677 0.1424929 -0.021607671 -0.078323856 0.0924318 0.08363153 0.007898243 -0.05891055
-0.02790828 -0.11412685 0.010105135 -0.11255395 -0.08843385 0.057830215 -0.012523976 0.04060156
-0.08262789 -0.027117465 -0.049273435 -0.10952443 -0.023675017 -0.03531247 0.08921623 0.105191216
-0.10046061 -0.13528056 0.093139194 0.032660138 0.03467914 0.12272282 -0.03887699 -0.062354688
00000000: 985f 8e3b 0bbb 5d3d 5113 ae3c ee73 92bc
00000010: 3def 073e c8d3 a8bc 56ba d83d 7ac3 ae3c
00000020: a9aa 0a3d ee49 2b3d 5513 a0bc cc8b 10bd
00000030: 1492 8e3d 7e70 8a3d b5d3 06be 6049 87bd
00000040: 8680 b53c e1c3 7c3d fc97 0c3c d72c a63d
00000050: 6971 f43d 4a40 9d3d 1878 913b 8340 4d3d
00000060: ea36 bf3d 09fc d9bc 9437 24bd b4ba b3bd
00000070: cecd 063e ec1f bcbd 4fd9 a23d f557 813b
00000080: 5ce7 313d ed0a 573c 1d2c 11be f81e 043e
00000090: c859 0b3e 7030 89bd c437 053d 3ae5 ea3c
000000a0: adfb 673d 4890 ccbc 3701 a7bd 41e0 743d
000000b0: 98ba 0bbd 0f8e b23d 0492 26bd c570 e0bc
000000c0: c7d6 cf3d f290 183d e639 09be 1df5 46bd
000000d0: 47ff 543d 0057 61bd 8ef1 b7bd 6a18 ba3d
000000e0: 9cd8 ddbd ca6f dcbd 7b8c fdbd 5013 663d
000000f0: 4416 97bd 80a4 d13d fd4e 043e 716a 06bc
00000100: 9fea e6bd 04bd f5bd b1be d5bd fca9 37bd
00000110: e13c 533c ac2e 263d 8e65 22bd 9c6c a03d
00000120: 090c e3b9 12e3 88bd d02c b0bd 270f a7bd
00000130: 412a 8d3d eab9 6bbb 2c54 b63c 2015 29bd
00000140: 425e 06be 4752 80bb 146b c13c fbf3 0e3e
00000150: 5dd4 813c 873e 543d 669b a7bd 7048 e23c
00000160: 8905 ef3c a39a 133d c097 11be 2b39 12be
00000170: 7b57 d3bd ca6b 4f3c dde4 dc3d f03f 03be
00000180: c08f d53d 54a0 08be c34f f83d 48c4 ffbc
00000190: 247e 5b3d 62de 953d 7042 f43d 36c8 d0bd
000001a0: 09cf 233d 6caf 9e3d 65c5 87bc 4a0e aa3d
000001b0: 2cdd 25bd f91d a83d 6544 293d b914 9e3d
000001c0: 6c5f c13c 2641 ff3d e1f8 32bd 0805 b8bd
000001d0: 261c cbbd 14cb fb3c 1c32 04bd 9f3b 55bd
000001e0: c65a 013e a6ac cbbc ee9a efbb 0f57 3e3c
000001f0: 141e b33d fdd6 6ebd 0b99 3d3c 7efc 143d
00000200: 12c7 5b3c 0088 353d 89a0 04bd 2e0d 493d
00000210: ad2f 97bd 2f31 c13c 89e7 e1bc 0b93 5c3b
00000220: fdfb b43d 4d60 5dbd 5935 0f3e 7257 593d
00000230: 2acf 933c 91a3 dabd a8a5 66bb e9c3 953d
00000240: 4dea 563d 217f 303d 4443 1cbd 96cc dd3d
00000250: 6852 c3bd f788 313b d4ba cc3c deda 473b
00000260: 31d6 0ebe 331e e43d 3828 3ebd 5f54 953c
00000270: 6931 7cbd cc7b bdbd d857 ebbd 54ed aa3d
00000280: 3300 ea3d 5c89 4abd 9105 e0bd 52f8 70ba
00000290: 8b93 66bd a9cc 593c 2fdd e53b 5569 03be
000002a0: 177d bc3c 4a47 babc b112 eebd b3ca 453d
000002b0: 21fb f63d 0863 0abe 8a3f dfbc 681e a63d
000002c0: bbc1 e4bc f200 c4bd 1f3e 0c3d 4306 11be
000002d0: e49b 873d 9e6b 09be 8aa8 e4bd 2127 ce3d
000002e0: a0b9 cabd fa1f 0e3e 0e3b 6abd 6fd9 f5bd
000002f0: 9e2c c2bd fa3d 9cbc 0e01 f6bd 100d f0bb
00000300: b0b1 1fbd a501 d73d aa76 c73d 1b6a c33d
00000310: 4249 3cbd 8e67 76bc 6129 983d 9b19 7abd
00000320: 51c4 0b3e f6f4 583d 110f 57bd 7e25 f83d
00000330: b11a 2f3c c3cf 233d 4f41 043e 3631 a6bd
00000340: a722 d53d 6397 34bd aa92 f23d 118f fbbd
00000350: 762e 753d 6b94 eabd e9f8 c83d af95 f8bd
00000360: 0932 5f3d bb1c 08be cf33 a33d 34cd 963d
00000370: 7b92 51bd 97c1 503d 9b6d b9bd 7a39 093e
00000380: cd50 adbd a9e9 113e 9202 b1bc 4268 a0bd
00000390: e24c bd3d 0247 ab3d a267 013c 304c 71bd
000003a0: e89f e4bc 57bb e9bd 0290 253c af82 e6bd
000003b0: ce1c b5bd 60df 6c3d 5d31 4dbc d24d 263d
000003c0: d038 a9bd 7225 debc f1d2 49bd 584e e0bd
000003d0: 1cf2 c1bc cfa3 10bd 00b7 b63d 7e6e d73d
000003e0: 4bbe cdbd fd86 0abe c3bf be3d a3c6 053d
000003f0: b70b 0e3d 1a56 fb3d 7b3d 1fbd a167 7fbd

fc.0.bias f4 [32]
-0.053095296 0.031762008 0.06252303 0.018388212 -0.07165286 -0.033717256 -0.028969003 0.10957
-0.01994511 -0.08165557 0.032036256 -0.03774672 0.0026432583 0.042559315 -0.08811503 -0.02341713
-0.13114126 0.023030631 -0.08905745 0.07569739 -0.059725337 0.037479524 -0.09470281 -0.07492191
-0.086641535 0.062374476 -0.08949434 0.12374197 -0.103396215 0.04174957 0.032410614 0.09542474
00000000: 747a 59bd e118 023d 130c 803d e0a2 963c
00000010: bcbe 92bd 1b1b 0abd 6750 edbc 3c66 e03d
00000020: ed63 a3bc 093b a7bd 7338 033d 4e9c 1abd
00000030: 843a 2d3b ad52 2e3d a775 b4bd 48d5 bfbc
00000040: e549 06be bcaa bc3c c163 b6bd 3c07 9b3d
00000050: 8ea2 74bd 2184 193d 8cf3 c1bd a970 99bd
00000060: 1e71 b1bd 617c 7f3d cf48 b7bd 6e6c fd3d
00000070: 65c1 d3bd 9901 2b3d fec0 043d 0c6e c33d

fc.1.weight f4 [3, 32]
-0.11353974 -0.16171138 -0.047232684 0.054698437 -0.17206185 0.08242341 -0.0626714 -0.0037182646
0.09412174 -0.15733334 -0.17370054 -0.15799071 0.14831091 0.11901112 0.101104766 -0.11747114
-0.15438096 0.02446455 0.14122708 0.11072652 -0.107937746 0.108233914 -0.0992942 -0.14660087
-0.12500383 -0.14837302 0.08258827 -0.14730689 -0.09003697 -0.095634714 -0.12257892 -0.06029524
0.024176845 0.0019142039 -0.051820308 0.1026906 -0.11504725 -0.17459026 -0.14868957 -0.09916859
-0.021481927 0.030888896 -0.04859299 -0.04226458 -0.053574286 0.08930031 0.041359648 0.044127222
0.04302436 0.010600759 -0.08804897 -0.083266094 0.103096016 0.09944244 0.09085322 -0.067797616
-0.018503066 -0.03826329 -0.14034216 -0.13087465 -0.06512461 0.10565618 0.022064405 0.04347468
0.16950525 0.17387936 -0.05265662 0.06959976 -0.035759665 0.1522615 -0.036905486 -0.14422707
-0.09060578 -0.020450152 -0.08898303 0.09809479 -0.0009881541 -0.056402013 -0.14332557 -0.16299205
-0.008193616 0.114869036 -0.09318416 -0.0398009 0.1693099 0.17272212 0.0039540553 -0.045001075
0.1440558 0.033316597 0.13250574 -0.12780224 0.07689219 -0.089686245 0.14004695 -0.03061661
00000000: 8687 e8bd ab97 25be 0f77 41bd 780b 603d
00000010: fb30 30be 9bcd a83d dd59 80bd 21ae 73bb
00000020: e6c2 c03d fe1b 21be 8ede 31be 51c8 21be
00000030: d1de 173e 1abc f33d 0410 cf3d b694 f0bd
00000040: 0b16 1ebe e169 c83c d59d 103e 96c4 e23d
00000050: 770e ddbd bea9 dd3d c25a cbbd 8a1e 16be
00000060: 0101 00be 19ef 17be 0a24 a93d 9ed7 16be
00000070: 4e65 b8bd 22dc c3bd a80a fbbd 24f8 76bd
00000080: 850e c63c 06e6 fa3a 8841 54bd 734f d23d
00000090: e59d ebbd cac7 32be 1442 18be e718 cbbd
000000a0: defa afbc b60a fd3c 7109 47bd a01d 2dbd
000000b0: b670 5bbd 15e3 b63d bc68 293d bfbe 343d
000000c0: 503a 303d ceae 2d3c 0553 b4bd 6a87 aabd
000000d0: 0124 d33d 7aa8 cb3d 4111 ba3d 7ad9 8abd
000000e0: be93 97bc f8b9 1cbd dbb5 0fbe 0104 06be
000000f0: 0d60 85bd 4462 d83d 69c0 b43c 8212 323d
00000100: c992 2d3e 6e0d 323e 78ae 57bd 528a 8e3d
00000110: ba78 12bd 70ea 1b3e 352a 17bd 43b0 13be
00000120: 868f b9bd 1487 a7bc bc3c b6bd ece5 c83d
00000130: f384 81ba cc05 67bd f0c3 12be 63e7 26be
00000140: 843e 06bc 7540 eb3d 56d7 bebd 4506 23bd
00000150: 935f 2d3e 11de 303e 0591 813b 0c53 38bd
00000160: 5d83 133e fc76 083d 96af 073e 97de 02be
00000170: a779 9d3d 6cad b7bd 7868 0f3e afcf fabc

fc.1.bias f4 [3]
0.021460675 0.15506731 0.020743122
00000000: 4cce af3c f7c9 1e3e 7bed a93c
