Other Experiments/data_reuploading/NQE/nq:2_nd:50/PCA-NQE_it0_48.pt (torch, 2703 bytes, 6 tensors)

linear_relu_stack2.0.weight f4 [6, 2]
00000000: a67e 16bf f216 c83e e699 4abf fd0b 9e3e
00000010: d244 dabd 1530 17be 3f02 f73e 9f87 fbbe
00000020: 1fbf 05bf acf4 dbbe 6c7f 293f fc09 043f
-0.58787 0.39080006 -0.7914108 0.3086852 -0.10657658 -0.14764436 0.482439 -0.49126908
-0.5224475 -0.42960107 0.66210055 0.51577735

linear_relu_stack2.0.bias f4 [6]
00000000: 51ef a1be f865 bc3e 2381 36be f925 32bf
00000010: 7d7b 22bf 5d32 f7bd
-0.31627896 0.36796546 -0.17822699 -0.6958919 -0.6346968 -0.12070153

linear_relu_stack2.2.weight f4 [6, 6]
00000000: 7c72 d33d bee6 d53e 332b 59be b284 0c3e
00000010: 6394 d43d 941b c53c 66f7 7b3e fe77 83be
00000020: fd95 1c3e 2c76 d73e 95de a93d 5510 b8be
00000030: fbeb 92be 30b5 923e b0d6 b6be 9148 3fbd
00000040: 43ff c3be c80b cebe cfa1 833e 8987 acbe
00000050: 1828 143e 5e5d 9bbe 8336 73bd c1c4 c5be
00000060: b29e 71bd b428 37bc d88e ad3e fe67 61be
00000070: b889 bebc 5213 42be 40d9 79be 3d14 a23e
00000080: 2869 b53e e308 7dbd cb48 b13d 1ccd 64be
0.103245705 0.41777605 -0.21207885 0.13722494 0.10379865 0.024061002 0.24606094 -0.25677484
0.15291591 0.42082345 0.08294407 -0.3594996 -0.28695664 0.2865386 -0.3571067 -0.046700064
-0.38280687 -0.40243363 0.25709388 -0.33697155 0.1446842 -0.3034467 -0.05937816 -0.38626674
-0.058989234 -0.011179138 0.33898044 -0.22012326 -0.023259029 -0.18952683 -0.2439928 0.31656066
0.3543179 -0.061776053 0.08656462 -0.22343868

linear_relu_stack2.2.bias f4 [6]
00000000: ff49 0cbe ff1d 393d 8bf2 a5be 48d0 9c3d
00000010: 5f23 873e 7527 9c3e
-0.13700102 0.045194622 -0.32411608 0.07656914 0.26394174 0.30498853

linear_relu_stack2.4.weight f4 [3, 6]
00000000: 55f2 5c3e f2a1 b2bd 140f 57be 15e4 0ebe
00000010: 58a8 673e 762c aa3c a7d7 df3c 02be 043e
00000020: 0040 b1be ee95 97be e8b3 b33e 9a32 19be
00000030: 5ac6 e4be 340e 663e 91c4 8b3e 2354 bdbe
00000040: a75a b2be def4 e0be
0.21576817 -0.08722295 -0.21001846 -0.13954194 0.22622812 0.020773154 0.02732451 0.12963107
-0.3461914 -0.29606575 0.35098195 -0.14960709 -0.4468258 0.22466356 0.27298406 -0.36978254
-0.34834787 -0.4393682

linear_relu_stack2.4.bias f4 [3]
00000000: a2e6 1e3e 857b 82be d3ac f5bd
0.15517667 -0.25484863 -0.11995854
