Other Experiments/data_reuploading/NQE/nq:2_nd:50/PCA-NQE_it0_24.pt (torch, 2703 bytes, 6 tensors)

linear_relu_stack2.0.weight f4 [6, 2]
00000000: ea7f 16bf e50c ce3e 205c 4abf bd98 973e
00000010: 39f6 dabd b09c fabd e3cf f53e 7daf f9be
00000020: c952 05bf f37f d8be af93 283f f8cd 043f
-0.5878893 0.40244213 -0.7904682 0.29608718 -0.106914945 -0.12236917 0.48010167 -0.487667
-0.52079445 -0.42285118 0.6585035 0.51876783

linear_relu_stack2.0.bias f4 [6]
00000000: 7202 a4be c688 bb3e 3789 41be e76a 32bf
00000010: 64a5 23bf c20d f5bd
-0.32033116 0.36627787 -0.189 -0.6969437 -0.6392424 -0.11965515

linear_relu_stack2.2.weight f4 [6, 6]
00000000: 7939 ad3d f988 cf3e fb99 5bbe c8bb 133e
00000010: 219c c53d 0f04 cf3c 66f7 7b3e fe77 83be
00000020: 0196 1c3e b9c7 d43e 95de a93d a856 b9be
00000030: fbeb 92be 30b5 923e b0d6 b6be 9148 3fbd
00000040: 43ff c3be c80b cebe cfa1 833e 8987 acbe
00000050: 1828 143e 5e5d 9bbe 8336 73bd c1c4 c5be
00000060: 0198 a3bd a691 f2bc 2c4e ac3e 36f2 5fbe
00000070: 1cde 00bd d778 3fbe fbb5 85be f222 9d3e
00000080: 5f52 b43e 0c74 48bd c509 a43d 3fd5 5dbe
0.08458228 0.4053419 -0.21445458 0.14427102 0.0964892 0.02527049 0.24606094 -0.25677484
0.15291597 0.41558626 0.08294407 -0.36198926 -0.28695664 0.2865386 -0.3571067 -0.046700064
-0.38280687 -0.40243363 0.25709388 -0.33697155 0.1446842 -0.3034467 -0.05937816 -0.38626674
-0.07987977 -0.029610466 0.3365339 -0.2186974 -0.03146182 -0.1869844 -0.26115403 0.30690724
0.35219094 -0.048938796 0.08009676 -0.21663378

linear_relu_stack2.2.bias f4 [6]
00000000: d473 0bbe 89f2 213d 8bf2 a5be 48d0 9c3d
00000010: dc42 843e 01bc a13e
-0.13618404 0.03953794 -0.32411608 0.07656914 0.2583226 0.31588748

linear_relu_stack2.4.weight f4 [3, 6]
00000000: 09ba 563e 4dcb b5bd 140f 57be 15e4 0ebe
00000010: 1ee1 673e 58f9 883c 0c2a be3c f845 083e
00000020: 0040 b1be ee95 97be f4f3 b23e b7d4 1cbe
00000030: 2a5d e0be ae16 5c3e 91c4 8b3e 2354 bdbe
00000040: 0962 b4be e2ed e3be
0.20969404 -0.08876667 -0.21001846 -0.13954194 0.22644469 0.016720459 0.023213409 0.13307941
-0.3461914 -0.29606575 0.34951746 -0.1531552 -0.4382108 0.21493027 0.27298406 -0.36978254
-0.35231045 -0.44517428

linear_relu_stack2.4.bias f4 [3]
00000000: 81b7 1a3e a917 84be 2125 fbbd
0.15109064 -0.257993 -0.12262941
