Other Experiments/data_reuploading/NQE/nq:2_nd:50/PCA-NQE_it2_45.pt (torch, 2703 bytes, 6 tensors)

linear_relu_stack2.0.weight f4 [6, 2]
00000000: 2bfd 233f 110f debd c269 57be 1add e23e
00000010: 71f1 1dbf 6aec b5be 8b6f 8ebe 7fcb 813d
00000020: ff8f ddbe 3c59 9a3d b1ed 6bbe 27a9 f9bc
0.6405818 -0.108427174 -0.21036437 0.44309312 -0.61696535 -0.35531932 -0.27819476 0.06337642
-0.43273923 0.07536551 -0.23039891 -0.030476166

linear_relu_stack2.0.bias f4 [6]
00000000: d58f b7bd 3908 35bf cfac 0ebf 2034 3c3e
00000010: d80e b83e 25d7 60be
-0.08962981 -0.7071567 -0.55732435 0.18379259 0.35948825 -0.21957071

linear_relu_stack2.2.weight f4 [6, 6]
00000000: 22a4 473a 5ba5 c23e 7188 013e fa0f 75bd
00000010: f68d aebe 78b0 a5be ff17 8f3e c7e3 d33d
00000020: 5672 233e 9c15 1bbe dedb 80be 38fa 36bd
00000030: 23c1 ae3e 20b1 013e d419 c83e 90ca 733b
00000040: b93a c0bd 60ec e1bd 9e28 9e3e a885 2e3d
00000050: 7ab1 cb3e 0ecc cdbe 9842 363d 5901 273e
00000060: ec2e 3d3e 73a4 3b3e 3a20 643d 0209 9dbe
00000070: db89 c3be e994 a13e 5b3d 5c3d 8b8c 24be
00000080: b3b6 ca3d 0c93 c83e c375 e93e ad72 d13d
0.0007615705 0.3801678 0.12649705 -0.05982969 -0.34092683 -0.32361197 0.27947995 0.103461795
0.15961584 -0.15144962 -0.25167745 -0.04467222 0.34131727 0.12665224 0.39082205 0.0037199594
-0.093862005 -0.11031413 0.30890363 0.042607933 0.3978384 -0.40194744 0.044497102 0.16309108
0.1847493 0.18324451 0.055694796 -0.30670935 -0.38191113 0.31558922 0.05376945 -0.16069238
0.09898128 0.39174688 0.45597658 0.10226951

linear_relu_stack2.2.bias f4 [6]
00000000: 0fb3 b73c 6135 1a3e e1cb c7be ccd0 6dbe
00000010: 789d 753b 7cf9 7e3b
0.022424249 0.15059425 -0.39022735 -0.23224181 0.0037477892 0.0038906028

linear_relu_stack2.4.weight f4 [3, 6]
00000000: 2ebf d33c f532 af3e 35dd 733b 1b7f 2e3d
00000010: f3b1 dc3e 0290 c5be 1fe0 ebbb 7cea a13e
00000020: eba0 9b3e e77d 4cbd b134 5dbe 435f dabe
00000030: de53 2abe ff8e 223e 7393 1abe 05a5 6abe
00000040: 0656 9ebe bdc8 ffbd
0.025847998 0.34218565 0.0037210707 0.042601686 0.43104514 -0.38586432 -0.007198348 0.3162421
0.30396208 -0.049924757 -0.21602131 -0.42650804 -0.16633555 0.15874861 -0.1509531 -0.22914512
-0.30925006 -0.1248946

linear_relu_stack2.4.bias f4 [3]
00000000: 82ab 5bbc 0998 ba3d 5670 293e
-0.01340759 0.0911103 0.16546759
