Other Experiments/data_reuploading/NQE/nq:2_nd:50/PCA-NQE_it4_0.pt (torch, 2695 bytes, 6 tensors)

linear_relu_stack2.0.weight f4 [6, 2]
00000000: 9649 2abe e983 23bf c09e b0be 56bf 073f
00000010: 3379 4f3e 4faa dd3e 79d7 03bf 6d46 243f
00000020: a33d 99be 7cde b43e b70b 97be 415f a8be
-0.16629633 -0.63873154 -0.34496117 0.5302633 0.20261078 0.43293998 -0.5150066 0.6416996
-0.29929838 0.35325992 -0.29501125 -0.32885173

linear_relu_stack2.0.bias f4 [6]
00000000: 3491 c0bd 37a2 21bf 6687 183f 06f2 2c3f
00000010: 6540 11bd 2d9d 86bc
-0.09402695 -0.63138145 0.595816 0.675568 -0.035461802 -0.01643237

linear_relu_stack2.2.weight f4 [6, 6]
00000000: 48e5 e5bd 8071 6a3d c901 c0be 688a 95be
00000010: 733a ce3e 2657 203e db40 98be be2f ca3e
00000020: 39b5 a7be ac3d bbbe 395a 993e cc4d 79be
00000030: 0479 163e 83fd 8e3d 6678 813e eb23 0e3e
00000040: c652 9dbe 753e ed3d 403e 2f3e 11cc 6dbe
00000050: 9248 f23b c80b 20bd bcf6 0bbe 2d81 393e
00000060: a73f 4f3e ccad bcbe 1429 f6bd fb70 c3be
00000070: c00f d03c 7236 a5be 9816 4ebe 0e6c af3d
00000080: ef18 1ebe e056 cb3d 2b82 94be 2e9e c6bd
-0.112253726 0.05723715 -0.37501362 -0.29207158 0.40278968 0.15658244 -0.2973698 0.3948955
-0.3275545 -0.3657049 0.29951647 -0.24346083 0.14694601 0.06981947 0.2528717 0.13880889
-0.30727214 0.11584178 0.1711359 -0.23222376 0.007393905 -0.039073735 -0.1366834 0.18115683
0.20239125 -0.36851346 -0.12019554 -0.38172135 0.025398135 -0.322681 -0.20125806 0.08565532
-0.15439199 0.099286795 -0.2900556 -0.09698139

linear_relu_stack2.2.bias f4 [6]
00000000: 79ff bebe 611e b83e d30c e5bd 42ea 5d3d
00000010: 5459 cabd 8450 5fbe
-0.37304285 0.35960677 -0.11184087 0.054178484 -0.09880319 -0.21808058

linear_relu_stack2.4.weight f4 [3, 6]
00000000: dc7d 033e 1731 b63e 05b1 1cbc 663c 8b3d
00000010: 3435 8e3d 664a 1dbd 2dd0 a93e 30d2 08be
00000020: 39c6 76be a782 283d 416e a93e 41bf 8f3e
00000030: c834 c8be 163d 55be 6b52 c7be 5e6b a43e
00000040: 77c0 b23e 02ed 5dbd
0.1284098 0.35584328 -0.009563689 0.067986295 0.069437414 -0.03840103 0.33166638 -0.1336143
-0.24099053 0.041140225 0.3309193 0.28075603 -0.3910277 -0.20824084 -0.38930067 0.32113165
0.34912464 -0.054181106

linear_relu_stack2.4.bias f4 [3]
00000000: 1385 09be cb1b 14be 8b63 b6be
-0.1342967 -0.14463727 -0.3562282
