Other Experiments/data_reuploading/TUE/nq:4_nl:10_nd:50/it1_36.pt (torch, 1064 bytes, 1 tensors)

qlayer2.weights f4 [80]
0.82273376 0.9767891 5.6200924 2.5513332 0.3178971 3.6593242 4.950526 1.3618529
5.648555 1.8078057 5.6496506 5.8380833 1.3750635 0.5885489 3.581396 2.7778897
3.603187 5.472981 4.6691623 1.6360666 1.0940193 3.7180197 5.845878 4.713003
6.1689134 5.1370597 0.5745117 0.4988244 5.5331426 6.262276 1.1455495 4.724579
5.1001506 2.484725 5.4456863 0.6396592 5.5409646 2.9323215 0.2730569 4.9732246
1.3152544 4.4093904 3.5700777 5.8924313 6.287338 2.8984993 2.0102508 2.4268715
1.7753025 4.130145 1.8488791 1.3217149 5.7302766 0.98905104 2.1589668 0.7150888
2.4294794 2.4442847 4.9105473 4.7851706 2.3499696 5.151245 6.06856 2.1377294
2.3297808 5.452926 2.2944267 2.6791756 4.4055634 2.4617794 1.0870309 0.44532046
2.3189409 4.514627 0.7545461 1.060669 2.1708088 4.1574845 0.3238918 5.105618
00000000: ae9e 523f da0e 7a3f ccd7 b340 0b49 2340
00000010: 69c3 a23e 5e32 6a40 b66a 9e40 3251 ae3f
00000020: f6c0 b440 2d66 e73f f0c9 b440 94d1 ba40
00000030: 1502 b03f 24ab 163f 9835 6540 f2c8 3140
00000040: 9e9a 6640 a922 af40 c769 9540 a16a d13f
00000050: d308 8c3f 09f4 6d40 6f11 bb40 ecd0 9640
00000060: bd67 c540 cb62 a440 3313 133f e965 ff3e
00000070: 810f b140 9164 c840 5ea1 923f c02f 9740
00000080: 6f34 a340 bc05 1f40 1043 ae40 b5c0 233f
00000090: 954f b140 28ab 3b40 1dce 8b3e a824 9f40
000000a0: 425a a83f ba19 8d40 277c 6440 cc8e bc40
000000b0: df31 c940 0381 3940 f3a7 0040 dd51 1b40
000000c0: 1d3d e33f 262a 8440 12a8 ec3f f42d a93f
000000d0: 6d5e b740 7332 7d3f 832c 0a40 0f10 373f
000000e0: 977c 1b40 296f 1c40 3423 9d40 1e20 9940
000000f0: e765 1640 00d7 a440 a531 c240 8fd0 0840
00000100: 211b 1540 5f7e ae40 e3d7 1240 9d77 2b40
00000110: 60fa 8c40 cb8d 1d40 d423 8b3f 0b01 e43e
00000120: 8769 1440 d377 9040 ef29 413f 00c4 873f
00000130: 88ee 0a40 1d0a 8540 25d5 a53e 3961 a340
