Other Experiments/data_reuploading/NQE/nq:4_nd:50/PCA-NQE_it2_4.pt (torch, 3655 bytes, 6 tensors)

linear_relu_stack2.0.weight f4 [12, 4]
0	0x3e8997db	0.2687367
1	0xbddf48d9	-0.109025665
2	0x3ea2738d	0.31728783
3	0x3e06d04f	0.13165401
4	0xbdb74d87	-0.08950334
5	0x3ea28c22	0.31747538
6	0xbe6ea21f	-0.23304032
7	0xbe3abcc9	-0.18236078
8	0xbe2aa692	-0.16665104
9	0xbe714f8c	-0.23565501
10	0xbde3b159	-0.11117811
11	0x3e2bbdbd	0.16771598
12	0xbd4e2e2e	-0.05033701
13	0xbde312ea	-0.11087592
14	0xbe95bcaa	-0.29245502
15	0xbeec76ed	-0.46184483
16	0xbdf5d346	-0.12003188
17	0xbefb7282	-0.491108
18	0xbd21ad43	-0.039471876
19	0x3e50df40	0.20397663
20	0x3eee5f23	0.4655696
21	0x3e9e95c4	0.30973637
22	0xbe5a511e	-0.21320006
23	0xbd8562e6	-0.06513004
24	0xbe372c8d	-0.17888089
25	0x3e24ce40	0.16094303
26	0x3e598caf	0.21245073
27	0xbd5fae11	-0.054609362
28	0x3e846d35	0.25864568
29	0x3e690c81	0.22758676
30	0x3ecb0149	0.39649418
31	0xbc2cd5a5	-0.010548984
32	0x3ca10283	0.019654518
33	0x3e9f1ae0	0.31075191
34	0xbe292a84	-0.16520125
35	0x3e4d3b04	0.20042044
36	0xbf0c5479	-0.54816395
37	0xbd6febbe	-0.05857443
38	0xbecff0d1	-0.40613416
39	0x3ea22ed8	0.31676364
40	0xbed91f9e	-0.42406934
41	0x3ef4c63a	0.47807485
42	0xbe852d71	-0.26011232
43	0xbe3a9cf7	-0.1822394
44	0xbed9dd4e	-0.42551655
45	0x3e559136	0.20856175
46	0x3ee7b4bc	0.45255077
47	0x3efae79a	0.49004823

linear_relu_stack2.0.bias f4 [12]
0	0xbe88c3be	-0.2671184
1	0x3eccf65b	0.40031704
2	0xbe91724a	-0.28407508
3	0xbe42387c	-0.1896686
4	0x3ea47a16	0.32124394
5	0x3ebc921f	0.36830232
6	0x3e568571	0.20949341
7	0xbd9ef268	-0.07761079
8	0x3dbc5aed	0.0919703
9	0x3ef4821f	0.47755525
10	0xbe3344e0	-0.17506742
11	0xbeb9ed26	-0.36313742

linear_relu_stack2.2.weight f4 [12, 12]
0	0x3c4e53fd	0.012593267
1	0x3e1eee3b	0.15520565
2	0xbb498aed	-0.0030752972
3	0x3dd9504e	0.1061102
4	0x3e91bfb1	0.2846656
5	0x3cc67245	0.02422441
6	0xbe6262ab	-0.22107951
7	0xbe00ddf9	-0.12584676
8	0x3e066af9	0.13126744
9	0xbe414a00	-0.18875885
10	0xbd8c9ca0	-0.06865811
11	0xbe16a392	-0.14710835
12	0xbe2644da	-0.16237202
13	0x3df69ae2	0.1204126
14	0xbd71bfd6	-0.05902084
15	0xbdaf4592	-0.08558191
16	0xbe13bdcb	-0.14427869
17	0xbd3dc8bf	-0.046334025
18	0xbe623f3c	-0.22094434
19	0x3e21b1a3	0.1579042
20	0x3e490a13	0.1963275
21	0xbdcf140c	-0.101112455
22	0xbd0d3016	-0.034469686
23	0xbe07ca37	-0.13260733
24	0xbe3b2c80	-0.18278694
25	0xbe6d6eef	-0.23186849
26	0x3dcf8835	0.10133401
27	0xbe7fff48	-0.24999726
28	0xbdf2cfb5	-0.11856023
29	0xbd03cf21	-0.032179955
30	0x3e3bb4d6	0.18330702
31	0xbe73eca0	-0.23820734
32	0xbb1b5afc	-0.0023705354
33	0x3e66305c	0.22479385
34	0xbd6da103	-0.05801488
35	0xbe29ee27	-0.16594754
36	0x3bf39128	0.0074330755
37	0xbe4ef9e8	-0.20212519
38	0x3d177268	0.03697434
39	0xbe521931	-0.20517422
40	0xbdb7e220	-0.08978677
41	0xbd84e1f6	-0.06488411
42	0x3d8a4208	0.06750876
43	0x3e14c438	0.14527977
44	0x3dda7e07	0.10668569
45	0xbe138c4f	-0.14408992
46	0x3d333231	0.043749038
47	0x3dca6492	0.098824635
48	0xbe7443b0	-0.23853946
49	0xbe25711c	-0.16156429
50	0xbe267676	-0.16256127
51	0x3e79649d	0.24354787
52	0x3cb1f1ba	0.02172171
53	0x3e8e574a	0.2780097
54	0xbe16ac3b	-0.14714138
55	0xbc93b3dd	-0.018030101
56	0x3def90ba	0.11697526
57	0xbe0ecefd	-0.13946147
58	0xbbd8ccbe	-0.006616204
59	0x3c849680	0.016185045
60	0x3c197dff	0.009368419
61	0xbd74211a	-0.05960188
62	0xbd7da6f2	-0.06192679
63	0x3e31bf84	0.17358214
64	0xbd15f0ce	-0.036606602
65	0x3e18299d	0.14859624
66	0x3e25aacb	0.16178434
67	0xbe0f965a	-0.14022198
68	0x3e936cbe	0.287939
69	0x3d7c8faf	0.061660465
70	0x3de7b377	0.11313527
71	0x3c2708de	0.010194985
72	0xbd054dc1	-0.032544855
73	0x3e8453a1	0.25845054
74	0xbe86ca9f	-0.26326463
75	0xbace0c9d	-0.0015720312
76	0x3e7f173e	0.2491121
77	0x3de02372	0.10944261
78	0xbe35b8ad	-0.1774623
79	0x3e2b4245	0.16724499
80	0x3ddccfcd	0.10781822
81	0xbe0372b6	-0.12836727
82	0xbd842dac	-0.06454024
83	0x3cfe5738	0.031047449
84	0x3df0e83e	0.11763047
85	0x3e525646	0.20540723
86	0x3e8cbd8d	0.27488366
87	0x3e02c881	0.12771799
88	0x3e4e648c	0.20155543
89	0xbdaf7bd5	-0.08568541
90	0x3c5a032b	0.013306419
91	0xbe3c5198	-0.183905
92	0x3d571471	0.05250973
93	0x3e8440a6	0.25830573
94	0xbe5be199	-0.21472777
95	0x3e3de354	0.1854375
96	0xbe064982	-0.13113979
97	0x3dc03c27	0.09386473
98	0x3d1b648d	0.03793769
99	0x3e00f13d	0.12592025
100	0xbdb07b91	-0.086173184
101	0xbe2160d9	-0.157596
102	0xbd0df73d	-0.034659613
103	0x3dd9997d	0.10624979
104	0xbe40f189	-0.18842138
105	0x3e97da50	0.29658747
106	0x3d2a0b28	0.041514546
107	0xbd40f626	-0.047109745
108	0xbcb5bc6a	-0.02218457
109	0xbda3224c	-0.07965526
110	0xbd73846d	-0.059452463
111	0x3e089ba2	0.13340619
112	0xbdc104e2	-0.094247594
113	0xbe85357c	-0.26017368
114	0xbdfdd95c	-0.12394974
115	0x3bff2a1f	0.0077870036
116	0xbe1c6b78	-0.15275371
117	0xbdad6e9c	-0.08468363
118	0x3e95e46c	0.29275835
119	0x3e47e329	0.19520248
120	0xbe01ef7c	-0.12689012
121	0xbcfb1f2d	-0.030654514
122	0xbe4a1049	-0.19732775
123	0xbdcfd17a	-0.10147376
124	0xbe52f24c	-0.20600241
125	0xbe2dfa7a	-0.1699008
126	0x3e10ae6b	0.14129035
127	0xbe01b0f2	-0.12665156
128	0x3d1f4929	0.03888813
129	0x3e1aa2ad	0.15101118
130	0x3e88aace	0.26692814
131	0xbd7531ca	-0.059861936
132	0xbd0f2326	-0.03494563
133	0x3e447074	0.19183522
134	0x3e931957	0.2873027
135	0x3db779b2	0.089587584
136	0xbde96907	-0.113969855
137	0xbe4a7976	-0.19772896
138	0x3e7494c7	0.23884879
139	0xbe49164b	-0.1963741
140	0x3cf84fd8	0.03031151
141	0x3de3642d	0.111030914
142	0xbda9cd84	-0.08291152
143	0x3e124aba	0.14286318

linear_relu_stack2.2.bias f4 [12]
0	0x3d8e4648	0.06946999
1	0xbe759f44	-0.23986536
2	0xbe39bfa9	-0.18139519
3	0x3ddc1ae1	0.10747314
4	0x3e3fa5d7	0.18715607
5	0x3c84af12	0.016196761
6	0xbe4a77de	-0.19772288
7	0x3d9b77a3	0.07591178
8	0xbe3235cf	-0.17403339
9	0x3e81be92	0.25340706
10	0x3dfb399f	0.1226685
11	0x3d360b3f	0.04444432

linear_relu_stack2.4.weight f4 [8, 12]
0	0x3e511b71	0.20420624
1	0x3e8b30f8	0.27185798
2	0x3e30673a	0.17226878
3	0xbe8ca0a4	-0.2746631
4	0x3dcffe7b	0.1015596
5	0xbc935f8b	-0.017989894
6	0xbe71805f	-0.23584126
7	0xbe916a5f	-0.28401467
8	0xbe1edb83	-0.15513425
9	0xbea0540f	-0.31314132
10	0xbe11f63e	-0.1425409
11	0x3e24b23f	0.1608362
12	0xbe82da20	-0.2555704
13	0xbe5421f0	-0.20716071
14	0xbe820a7f	-0.25398633
15	0x3d806a73	0.062703036
16	0x3e18540d	0.14875813
17	0xbe2eadd4	-0.17058498
18	0x3e8487af	0.25884768
19	0xbe90e5b2	-0.28300244
20	0xbe8f488b	-0.27985033
21	0x3cd4b35b	0.02596443
22	0x3e370609	0.17873396
23	0xbd743340	-0.05961919
24	0xbc1c364c	-0.00953443
25	0xbe2312b3	-0.15925102
26	0xbe7e9720	-0.24862337
27	0x3da623e4	0.08112314
28	0x3d23355b	0.039845806
29	0xbd8e5303	-0.06949427
30	0x3dc887f4	0.09791556
31	0xbe8fb9eb	-0.28071532
32	0x3e4ddd0f	0.20103858
33	0x3ca6519c	0.020302586
34	0x3e339a37	0.17539297
35	0xbe8619ca	-0.2619155
36	0x3df91889	0.12162883
37	0x3e69a209	0.22815718
38	0xbe378d2a	-0.17924944
39	0x3e169de1	0.14708664
40	0x3e79d79e	0.24398658
41	0xbd1b768e	-0.03795486
42	0x3d2a6cbf	0.041607615
43	0xbe5eb9f1	-0.21750619
44	0xbdf65bdb	-0.12029239
45	0x3d6efd54	0.05834706
46	0xbe8bf2b7	-0.27333614
47	0xbe47834c	-0.1948368
48	0xbd5ac67e	-0.053411953
49	0x3e319570	0.17342162
50	0xbe1ce548	-0.15321839
51	0x3de96b98	0.11397475
52	0xbd45711e	-0.04820358
53	0xbd5758cb	-0.052574914
54	0xbdc8d591	-0.098063596
55	0xbc9cd773	-0.019145703
56	0x3d3590b8	0.044327468
57	0xbe830e8f	-0.25597045
58	0x3d45e87d	0.04831742
59	0x3d835de4	0.064143926
60	0x3dc07c55	0.093987145
61	0xbd181961	-0.03713358
62	0x3e4ccc17	0.19999729
63	0xbd33f354	-0.043933228
64	0xbe3a71d4	-0.18207484
65	0xbdaef845	-0.085434474
66	0x3e0ef3a2	0.13960126
67	0xbe5138c0	-0.20431805
68	0x3e2870fd	0.16449352
69	0x3d5aaa23	0.05338491
70	0xbe5b4552	-0.21413162
71	0x3e184319	0.14869346
72	0xbe56b0eb	-0.20965926
73	0xbd8f8ee2	-0.070096746
74	0xbdb7ae4c	-0.08968791
75	0x3e0b832d	0.13624258
76	0x3e776632	0.24160078
77	0x3d0d929d	0.03456365
78	0xbdbe0a82	-0.09279348
79	0xbe89c5ff	-0.26908872
80	0x3d2da60b	0.04239468
81	0xbd33ddb6	-0.043912612
82	0x3db832f9	0.08994097
83	0x3e9645ca	0.2935012
84	0x3e26a593	0.16274099
85	0x3e1e2652	0.15444306
86	0xbc1bcbca	-0.009509036
87	0xbde405cf	-0.111339204
88	0x3e45d372	0.19318941
89	0x3c8cbdb8	0.017180309
90	0x3db8762f	0.09006917
91	0x3e13aed0	0.14422154
92	0x3b5c2286	0.0033589914
93	0x3d578a84	0.052622333
94	0xbe23afc4	-0.15985018
95	0xbe80d65e	-0.2516355

linear_relu_stack2.4.bias f4 [8]
0	0xbe2386f4	-0.1596945
1	0x3e306806	0.17227182
2	0x3e08f564	0.13374859
3	0xbb888724	-0.0041665006
4	0x3e7b633a	0.2454957
5	0x3c37f96a	0.011228899
6	0x3ddc43e7	0.10755139
7	0xbdd54338	-0.104132116
