Other Experiments/data_reuploading/TUE/nq:4_nl:3_nd:50/it2_40.pt (torch, 872 bytes, 1 tensors)

qlayer2.weights f4 [24]
00000000: 7462 c23e ea31 8340 6ce7 a040 3293 3840
00000010: 7956 5f3d 7907 cb3e 141a 9f40 75fa b840
00000020: b755 9340 0ba0 a93f 23b8 9540 779a c640
00000030: 7bf6 9c40 e562 6240 0a8b 8440 9c93 b63e
00000040: f469 0740 10dc 2340 c135 9e3e 11ea 9740
00000050: fd56 8a40 4f91 c840 3ff4 6040 a17d 6b40
0.3796574 4.099843 5.0282497 2.883984 0.054525826 0.3965414 4.9719334 5.7805734
4.604213 1.3251966 4.6787276 6.2063556 4.905088 3.537286 4.1419725 0.35659492
2.1158419 2.5603065 0.30900386 4.7473226 4.3231187 6.267738 3.5149076 3.6795428
