Other Experiments/data_reuploading/TUE/nq:4_nl:3_nd:50/it2_3.pt (torch, 869 bytes, 1 tensors)

qlayer2.weights f4 [24]
0.37288937 4.080774 5.0169177 2.8972247 0.04958369 0.36869478 4.970713 5.785829
4.6237187 1.329958 4.6636 6.216545 4.901727 3.5361993 4.1416497 0.33920476
2.1403341 2.5613732 0.31339288 4.737929 4.3105493 6.2493916 3.5174172 3.6924872
00000000: 5beb be3e b395 8240 978a a040 216c 3940
00000010: 4418 4b3d 90c5 bc3e 1510 9f40 8325 b940
00000020: 81f5 9340 103c aa3f 363c 9540 f0ed c640
00000030: f3da 9c40 1751 6240 6588 8440 3fac ad3e
00000040: 3cfb 0840 8aed 2340 0875 a03e 1d9d 9740
00000050: 05f0 8940 04fb c740 5d1d 6140 b651 6c40
